saved_models/nn-reg.model (torch_old, 103889 bytes, 9 tensors)

fc1.weight f4 [100, 200]
0	0x3d00d4ec	0.031453058
1	0xbd14cfcc	-0.036330983
2	0xbc99351b	-0.01870208
3	0x3d1ce4a3	0.038303982
4	0xbd7bca11	-0.061472002
5	0x3d18bbff	0.037288662
6	0xbc1a6e37	-0.009425691
7	0x3d284694	0.041082934
8	0x3c74fb49	0.014952489
9	0xbc61c91b	-0.013780857
10	0x3c6d7519	0.01449325
11	0xbad59689	-0.0016295473
12	0x3ca9bad3	0.020718968
13	0xbd05aa6d	-0.032633234
14	0xbc2872c9	-0.010281273
15	0xbaa78c98	-0.0012782989
16	0x3c7bc371	0.015366421
17	0xbbb12798	-0.0054063313
18	0x3d890e3c	0.06692168
19	0x3cde3e35	0.027129272
20	0xbcae4fe1	-0.021278324
21	0xbd43f08b	-0.04783682
22	0xbbded653	-0.006800452
23	0xbd11deb6	-0.035612784
24	0xbce39534	-0.027781107
25	0x3c0b64e6	0.008507943
26	0x3d419487	0.047260787
27	0x3d092520	0.03348267
28	0xbd832c77	-0.06404965
29	0x3d1e96ce	0.038718037
30	0x3cc9c1bd	0.024628514
31	0x3d93ca30	0.072162986
32	0x3d5426c1	0.05179477
33	0xbd73dd8c	-0.059537455
34	0xbd7e870c	-0.06214051
35	0xbced7cdf	-0.028990207
36	0x3d89a634	0.06721154
37	0xbbd9f620	-0.006651655
38	0x3ccdea7f	0.02513623
39	0xbce334e3	-0.02773518
40	0x3d9885e1	0.074474104
41	0xbccb2c97	-0.024801536
42	0x3d444471	0.047916833
43	0xbb8b74df	-0.0042558755
44	0xbd039c01	-0.0321312
45	0x3cffed7a	0.031241167
46	0xbd2e9fe0	-0.042632937
47	0x3cd44811	0.02591327
48	0xbc7aa6cc	-0.015298557
49	0xbb2f5839	-0.0026755466
50	0xbd95ae42	-0.07308628
51	0xbd1efda1	-0.038816098
52	0x3d085097	0.03327998
53	0xbcb6cc02	-0.022314075
54	0x3d85c086	0.065308616
55	0x3d53c04c	0.05169706
56	0x3aec46fb	0.0018026525
57	0xbd2c5e15	-0.04208191
58	0x3d455852	0.048179932
59	0x3c8ac5c7	0.01694001
60	0xbd2652b9	-0.040606234
61	0x3d50f868	0.05101815
62	0x3d44d046	0.048050188
63	0x3d8aed67	0.06783562
64	0xbd375207	-0.04475596
65	0xbc88d586	-0.016703378
66	0x3b758cab	0.0037467878
67	0x3baa8898	0.0052042715
68	0xbd70cc88	-0.058788806
69	0xbd627d87	-0.055295493
70	0x3d0890d6	0.03334125
71	0xbcb19c9e	-0.021681126
72	0x3cf25704	0.029582508
73	0xba86731f	-0.0010257697
74	0x3c944c9f	0.018102942
75	0x3c2ac22d	0.010422272
76	0x3cfc888a	0.030826826
77	0x3d248804	0.040168777
78	0xbd77583d	-0.060386885
79	0x3d1514cb	0.036396783
80	0xbd36a9d0	-0.04459554
81	0xbd4589dc	-0.048227176
82	0x3c19f952	0.0093978215
83	0xbc8cadfe	-0.01717281
84	0x3d1526db	0.03641401
85	0xbd12cab4	-0.035837844
86	0xbd6c7e75	-0.057737786
87	0x3d67c265	0.056581873
88	0xbc7fced2	-0.015613275
89	0x3d37e2ef	0.044894155
90	0x3c907067	0.017631723
91	0xbd6e26de	-0.058142535
92	0x3c14d266	0.009083366
93	0x3c425a31	0.011862324
94	0xbd2cf4cb	-0.04222564
95	0xbd114d2a	-0.03547398
96	0x3cef5c7f	0.02921891
97	0x3c919ac7	0.017773999
98	0xbd10141d	-0.03517543
99	0xbcd8998e	-0.026440408
100	0x3d8f0b89	0.06984622
101	0xbc0462d1	-0.0080802
102	0x3d0e4ed4	0.034743145
103	0x3cd0e5d1	0.02550021
104	0xbd26a886	-0.04068806
105	0xbd6159ae	-0.055017166
106	0x3d956613	0.0729486
107	0xbabc4e29	-0.0014366555
108	0x3d5b87bc	0.053596243
109	0x3c1c27db	0.009530987
110	0x3ce433b9	0.027856695
111	0x3d6d52b9	0.05794022
112	0x3d93a841	0.07209826
113	0xbd552baa	-0.052043594
114	0x3c64aaf9	0.013956779
115	0x3d6cff79	0.057860825
116	0x3d3cd87f	0.046104904
117	0x3d4839f4	0.048883393
118	0xbd668359	-0.056277607
119	0xbd3bc86a	-0.045845427
120	0xbd4421eb	-0.04788391
121	0x3b76827c	0.0037614396
122	0x3d85dc5f	0.06536173
123	0xbd4beb38	-0.04978487
124	0x3d055c51	0.032558743
125	0xbd0b4d95	-0.034009535
126	0xbd92a219	-0.07159824
127	0xbca5018f	-0.020142345
128	0x3d11f048	0.03562954
129	0x3d901e08	0.07036978
130	0xbd48c0d8	-0.049012035
131	0x3c27b28c	0.01023544
132	0x3d64ee3b	0.055891257
133	0x3d54ebf6	0.051982842
134	0x3d1f9e41	0.038969282
135	0x3d38d4e6	0.04512491
136	0x3d223fa0	0.03961146
137	0x3cbf8db3	0.023382997
138	0xbd5aed51	-0.05344898
139	0xbd8412a1	-0.06448866
140	0xbd19a306	-0.037508987
141	0xbc57b2ab	-0.013165156
142	0xbd466814	-0.0484391
143	0x3caa49bd	0.020787114
144	0x3c8941ed	0.016755069
145	0xbcac6c16	-0.021047633
146	0x3d043d81	0.032285217
147	0x3ce4f728	0.027949885
148	0x3d1bdc59	0.038051937
149	0x3d57ffae	0.05273407
150	0xbcee232d	-0.029069507
151	0x3d8301bb	0.063968144
152	0xbb47c3b1	-0.0030481631
153	0x3b2f9459	0.0026791303
154	0xbd93231b	-0.0718443
155	0xbd256a18	-0.040384382
156	0xbd144aed	-0.036204267
157	0xbd10b999	-0.03533325
158	0x3d38f06c	0.04515116
159	0xbc935068	-0.017982677
160	0xbd4376c4	-0.047720686
161	0x3d045f75	0.032317597
162	0x3c8f7eeb	0.017516574
163	0x3d4a4785	0.049384613
164	0xbd00e90e	-0.03147226
165	0x3ca43a51	0.020047339
166	0xbcfcba33	-0.030850505
167	0xbcabf350	-0.020990044
168	0xbd51d30b	-0.051226657
169	0xbd19014c	-0.037354752
170	0xbc87ce1c	-0.016577773
171	0x3cce87b1	0.025211187
172	0x3bff69c6	0.0077945916
173	0x3c4a4fd4	0.012348134
174	0x3d8612b0	0.06546533
175	0x3d978aa7	0.07399493
176	0x3d5a853f	0.05334973
177	0x3bee8bdf	0.0072798575
178	0xbd33edc9	-0.04392794
179	0x3d4d68cd	0.050148774
180	0xbcbade63	-0.02281112
181	0xba1b58a6	-0.00059259904
182	0xbd873283	-0.06601431
183	0xbc9c5807	-0.019084943
184	0xbd25d5de	-0.040487163
185	0x3d8f8ccb	0.07009276
186	0xbd666a90	-0.05625397
187	0xbd4cc8a7	-0.049996044
188	0x3b2ffab8	0.002685232
189	0xbd319477	-0.043354478
190	0x3cf8f351	0.03038946
191	0xbd0410a7	-0.032242443
192	0xbce7da31	-0.028302284
193	0x3c15257d	0.009103176
194	0x3d663ce4	0.056210414
195	0xbd609a9c	-0.054834947
196	0x3ce6689f	0.02812606
197	0x3d251b04	0.040308967
198	0x3d83300c	0.064056486
199	0xbd35be5c	-0.044370994
200	0x3c8d34d2	0.0172371
201	0xbd65df9c	-0.056121454
202	0x3d731f41	0.059355978
203	0xbccc26f0	-0.02492091
204	0x3d1fb036	0.038986407
205	0x3cbccd4a	0.023047108
206	0x3ae3e5e3	0.0017387237
207	0x3c9eff96	0.019408982
208	0x3c8995aa	0.016794998
209	0x3d326c4d	0.043560315
210	0x3cd17628	0.025569037
211	0x3c4addbc	0.012381967
212	0xbd276d9b	-0.040876012
213	0x3d3a9c03	0.04555894
214	0x3d840c48	0.06447655
215	0x3cd03300	0.025414944
216	0x3d669492	0.05629403
217	0xbd686423	-0.056736123
218	0xbcbd4325	-0.023103306
219	0x3d71770a	0.058951415
220	0xbd915ffc	-0.07098386
221	0x3d70b116	0.058762632
222	0xbd2d3417	-0.042286005
223	0xbd318405	-0.043338794
224	0x3cdf3562	0.027247135
225	0xbda8b384	-0.08237365
226	0xbc444473	-0.01197921
227	0x3d5e6ca9	0.054302845
228	0x3d11aa33	0.035562705
229	0x3d8b3a45	0.067982234
230	0x3bb80225	0.00561549
231	0xbd8a28fd	-0.06746099
232	0x3d88a5e1	0.06672264
233	0xbcb1a23f	-0.02168381
234	0xbd5e2b7a	-0.05424068
235	0x3cb7610a	0.022385139
236	0xbd12331a	-0.035693265
237	0x3d50de6b	0.050993364
238	0x3db35ade	0.08757566
239	0xbd9311b2	-0.071811095
240	0xbd13c19e	-0.03607332
241	0x3bceba70	0.006308846
242	0x3cc01da1	0.023451628
243	0xbc4a319b	-0.012340928
244	0xbd1deeb1	-0.038557712
245	0xbb4bab8c	-0.0031077592
246	0xbd91b539	-0.071146436
247	0xbd0ad4b1	-0.033894245
248	0xbd8c85c5	-0.06861452
249	0x3d7d485b	0.06183658
250	0x3da829ed	0.08211122
251	0x3cafc901	0.02145815
252	0x3c901d78	0.017592177
253	0x3cde6d7e	0.02715182
254	0x3b41a32b	0.0029546719
255	0xbd56a145	-0.052399892

fc1.bias f4 [100]
0	0x3d79af87	0.06095841
1	0x3ca89afc	0.020581715
2	0x3ccdd0f5	0.025124053
3	0xbd68e689	-0.05686048
4	0xbd97fa7d	-0.07420824
5	0x3e059a4c	0.13047141
6	0x3d5a5a1f	0.053308602
7	0xbc98dbfc	-0.018659584
8	0x3b8b44a7	0.0042501274
9	0xbd2aa55c	-0.041661605
10	0xbd851b5f	-0.06499361
11	0x3cda5635	0.026652435
12	0xbd51037e	-0.05102872
13	0x3c0884b0	0.008332416
14	0x3c870d19	0.016485738
15	0x3cc0fcb0	0.02355799
16	0xbcfee09a	-0.031112958
17	0x3baecde4	0.0053346027
18	0x3b9b3342	0.004736335
19	0xbd66550e	-0.05623346
20	0x3ca69062	0.020332519
21	0x3cfe58e2	0.031048242
22	0xbb78ff35	-0.0037993912
23	0xbb6fb1e0	-0.0036574528
24	0xbd81d6df	-0.063398115
25	0xbd8efc9b	-0.069817744
26	0x3ccbaf9a	0.024864007
27	0x3d7142d9	0.05890164
28	0xbce79f71	-0.02827427
29	0x3bd3cfe0	0.0064639896
30	0x3d22994b	0.039696973
31	0xbd8cae70	-0.06869209
32	0xbd16ee84	-0.03684856
33	0x3d05474d	0.0325387
34	0x3ca9987f	0.020702599
35	0xbdb41abc	-0.08794162
36	0xbd76cfe6	-0.06025686
37	0xbd3937eb	-0.045219343
38	0xbd36caad	-0.04462688
39	0xbcfd83b2	-0.030946586
40	0x3dd5f0fd	0.104463555
41	0x3d58dbaa	0.052943863
42	0x3dd9e246	0.10638861
43	0x3ca870d3	0.020561611
44	0x3b8fb850	0.0043859854
45	0xbd5faf9b	-0.05461083
46	0xbc43bb9d	-0.011946586
47	0xbd47b22f	-0.048753913
48	0x3da6c106	0.08142285
49	0xbd8173cc	-0.063209146
50	0xbcebb905	-0.028774748
51	0x3d44bee1	0.0480336
52	0x3d38da84	0.045130268
53	0x3d3982b0	0.04529065
54	0xbd8b6307	-0.06805997
55	0xbc8d9012	-0.017280612
56	0xbc4cfa71	-0.012510882
57	0x3d262fc5	0.0405729
58	0x3d50c4c3	0.050968897
59	0x3a8f9080	0.0010953099
60	0x3ce52ccc	0.027975462
61	0x3d0c680a	0.034278907
62	0xba3ca252	-0.00071958185
63	0x3d7e3c7f	0.062069412
64	0xbda86fe9	-0.0822447
65	0x3d52b739	0.051444266
66	0x3d7042fb	0.058657628
67	0x3dccd7e3	0.100021146
68	0xbb2e4d3f	-0.0026596335
69	0xbc699a7f	-0.014258026
70	0xbd8aab01	-0.06770898
71	0xbdd32392	-0.10309519
72	0xbcbb6a3d	-0.022877807
73	0x3d1c0787	0.038093116
74	0x3d051709	0.03249267
75	0xbc41c421	-0.011826546
76	0xbc7f57dd	-0.015584913
77	0x3d64c625	0.055853028
78	0xbc509e9c	-0.012733128
79	0x3c54dc53	0.0129919825
80	0x3db4f921	0.0883658
81	0x3dbfa35c	0.0935733
82	0xbccd6043	-0.025070315
83	0x3c081d24	0.008307729
84	0x3d1eec8f	0.03879982
85	0xbce250fd	-0.027626509
86	0xbdabfa80	-0.083973885
87	0x3c055edb	0.008140291
88	0xbd3e449a	-0.046452142
89	0xbcd5c0ea	-0.026092965
90	0x3cc5a70a	0.024127502
91	0xbb8afd30	-0.004241608
92	0x3d1933d5	0.037402947
93	0x3c316351	0.0108269015
94	0xbcc17cec	-0.023619138
95	0xbd9d33ac	-0.07675871
96	0x3d92c444	0.07166341
97	0x3d6236f8	0.055228204
98	0x3c8d9f9d	0.017288024
99	0x3b7a0226	0.0038148253

fc2.weight f4 [50, 100]
0	0x3da28819	0.07936115
1	0xbdd23398	-0.10263747
2	0x3dc8587d	0.09782503
3	0xbd8877ac	-0.066634506
4	0x3d5f48d6	0.05451282
5	0x3d5afa6c	0.053461477
6	0x3d1e5e18	0.038663954
7	0xbd919480	-0.07108402
8	0xbd26a8b0	-0.040688217
9	0xbda14b38	-0.07875675
10	0x3d81a689	0.06330592
11	0xbd1f0937	-0.038827147
12	0xbd45e24b	-0.048311513
13	0x3af432c0	0.0018630847
14	0xbb3d9f4f	-0.0028934067
15	0xbbb3a4b0	-0.0054822788
16	0xbdc5c235	-0.09656183
17	0x3ca5b08d	0.020225788
18	0xbd51d098	-0.05122432
19	0xbd9dbb25	-0.077017106
20	0xbd2d2055	-0.042267162
21	0x3da4caf6	0.08046524
22	0x3c4b759d	0.012418178
23	0xbdb46113	-0.08807578
24	0x3d04e7c3	0.032447588
25	0x3d26a902	0.040688522
26	0xbcc23fab	-0.023712
27	0x3d923dfd	0.071407296
28	0x3c9ba30f	0.01899865
29	0xbd4de835	-0.050270278
30	0x3d370cc7	0.04468992
31	0xbc160058	-0.009155355
32	0xbd804944	-0.06263974
33	0x3d12238f	0.035678443
34	0xbdb0d570	-0.0863446
35	0xbd2e6c4c	-0.04258375
36	0xbd8c397d	-0.068469025
37	0xbd4c23d7	-0.049838867
38	0x3d8ba657	0.06818836
39	0xbb9d2506	-0.0047956733
40	0x3cf41dca	0.02979936
41	0x3d971a71	0.0737809
42	0x3d80255e	0.06257127
43	0xbd8e2021	-0.06939722
44	0x3d38d1fa	0.045122124
45	0xbcdbc791	-0.02682856
46	0x3d89c462	0.0672691
47	0xbdced397	-0.10098951
48	0xbcde62d8	-0.027146742
49	0xbcbfa84c	-0.02339568
50	0x3a070fa0	0.00051521696
51	0x3d57bb7d	0.052669037
52	0x3c05def0	0.008170828
53	0xbdc6ec66	-0.09713058
54	0xb98c97a0	-0.0002681585
55	0x3d4974a2	0.049183495
56	0x3d48a3b6	0.048984252
57	0xbd79c96b	-0.060983103
58	0x3d7f6890	0.062355578
59	0xbe9910e4	-0.298957
60	0xbd9fab09	-0.07796294
61	0xbd507bd7	-0.050899353
62	0x3d06c691	0.03290421
63	0x3c11471a	0.00886705
64	0x3ca55628	0.020182684
65	0x3d34b531	0.04411811
66	0xbda426b9	-0.08015198
67	0xbd887e8c	-0.06664762
68	0xbd649bb8	-0.055812567
69	0xbdc719e7	-0.09721737
70	0x3cf7040c	0.030153297
71	0x3d216e8d	0.03941207
72	0x3db62858	0.08894414
73	0x3d82ad8a	0.06380756
74	0x3cfee879	0.031116711
75	0x3cb3a751	0.021930369
76	0x3d8094f6	0.06278412
77	0x3deadb96	0.11467664
78	0x3d6a4312	0.05719287
79	0x3daa7eaf	0.08324944
80	0xbd80f233	-0.06296196
81	0xbd42aa86	-0.047525905
82	0xbd106253	-0.03525002
83	0x3c8f4b02	0.017491821
84	0xbdf5062d	-0.119640686
85	0x3ce3943c	0.027780645
86	0xbda6ac7d	-0.08138368
87	0xbda9bc5a	-0.08287878
88	0x3db7720b	0.08957299
89	0xbd0b8d74	-0.034070447
90	0xbdb00130	-0.085939765
91	0x3d8e0969	0.069353886
92	0x3d62bbf2	0.05535502
93	0xbdb362a2	-0.08759047
94	0xbd48a5aa	-0.048986115
95	0x3d3020d2	0.04300005
96	0xb801e520	-3.0969386e-05
97	0x3dc4906e	0.0959786
98	0xbda97415	-0.08274094
99	0x3dabf39c	0.08396074
100	0xbd5da660	-0.054113746
101	0xbd4a7ac4	-0.049433485
102	0x3d32c274	0.043642476
103	0xbc80b3ec	-0.015710793
104	0xbdd17cca	-0.1022888
105	0x3cf65cf6	0.030073624
106	0x3d458e26	0.048231266
107	0x3c0a1128	0.008426942
108	0x3d8cf451	0.06882537
109	0x3dc8f791	0.098128445
110	0xbcdd10ec	-0.026985608
111	0xbd4dcae0	-0.050242305
112	0xbd83c51d	-0.06434081
113	0x3dbfe0c5	0.09369043
114	0xbbdd1520	-0.006746903
115	0x3da800ee	0.08203302
116	0xbcd7f91a	-0.026363898
117	0xbb2d6b00	-0.0026461482
118	0x3c9a0c59	0.018804716
119	0xbd8dfb45	-0.069326915
120	0xbd809f70	-0.0628041
121	0x3d7fe0f8	0.062470406
122	0xbd59ab32	-0.05314178
123	0xbdbad375	-0.091223635
124	0xbd424c64	-0.047436133
125	0x3d6a1992	0.057153292
126	0x3d811470	0.06302726
127	0x3d5f8928	0.05457416
128	0xbc59ddf8	-0.01329755
129	0x3ca7c06d	0.020477498
130	0x3d5b8058	0.053589195
131	0xbdab13da	-0.08353396
132	0xbdde3cc8	-0.10851437
133	0x3db4220d	0.08795557
134	0xbd95c12b	-0.073122345
135	0xbddc262e	-0.1074947
136	0xbd068728	-0.03284374
137	0x3caaeaec	0.020863973
138	0x3d156c72	0.036480375
139	0xbd565380	-0.052325726
140	0xbd867981	-0.06566144
141	0xbd1b4823	-0.03791059
142	0x3d3373a9	0.043811474
143	0x3d753424	0.05986418
144	0xbd8c7c22	-0.06859614
145	0xbd989568	-0.07450372
146	0x3d1ca153	0.03823979
147	0xbd881450	-0.06644499
148	0x3d566d29	0.052350197
149	0xbd1c2777	-0.038123574
150	0xbd07f3b4	-0.033191398
151	0x3be9294b	0.007115518
152	0xbdaad8ab	-0.083421074
153	0xbd2bb399	-0.041919325
154	0x3d3fa751	0.046790425
155	0x3d2cc96a	0.04218427
156	0xbd0e0b9c	-0.03467904
157	0xbdcd927f	-0.100377075
158	0xbd356c72	-0.044292875
159	0x3d15b7b6	0.036552154
160	0x3a682da0	0.00088568963
161	0x3d3a3078	0.04545638
162	0xbdbef843	-0.09324696
163	0xbd7fb09a	-0.06242428
164	0x3c71ec83	0.014765861
165	0xbd43fd5d	-0.047849048
166	0xbce9526c	-0.028481685
167	0x3b29500d	0.0025835067
168	0xbd12c6f6	-0.035834275
169	0xbce18e73	-0.027533745
170	0x3c935af2	0.017987702
171	0x3cfe7965	0.031063745
172	0x3da565cd	0.080760576
173	0x3db972a1	0.09055067
174	0xbd6bb4ec	-0.057545587
175	0x3cbe9e9e	0.023268994
176	0xbcc0d64b	-0.023539683
177	0x3d8aab38	0.06770939
178	0xbd96a143	-0.07354977
179	0xbc94ba49	-0.018155234
180	0xbcc9b79d	-0.024623686
181	0x3d68fb00	0.056879997
182	0x3d0a03fe	0.033695213
183	0xbd1621cf	-0.036653336
184	0x3d6b42e6	0.057436846
185	0xbcffb140	-0.03121245
186	0x3cd4962f	0.02595052
187	0xbccb9f53	-0.024856245
188	0xbbbd8ba0	-0.005784467
189	0xbcb41c00	-0.021986008
190	0x3d2a9316	0.04164418
191	0xbd8e3a4e	-0.069447145
192	0x3d680bde	0.056651942
193	0xbd78c8b9	-0.0607383
194	0xbd635e67	-0.05550995
195	0xbdb1472f	-0.08656155
196	0xbc64dea5	-0.013969098
197	0x3d919da4	0.07110146
198	0x3d9b43c2	0.07581283
199	0xbd5c3d44	-0.053769365
200	0x3dc6300d	0.09677134
201	0xbcba3e1c	-0.022734694
202	0x3d39d88c	0.04537253
203	0xbdb96183	-0.09051802
204	0x3c0c2bd3	0.00855537
205	0x3da7e8d7	0.081987076
206	0x3db12aa3	0.086507104
207	0x3da0b389	0.078467436
208	0x3d055426	0.032550953
209	0xbd0f96cc	-0.03505592
210	0xbd9ec86e	-0.07753073
211	0xbb8c16d0	-0.0042751804
212	0x3d1a0716	0.037604414
213	0xbd940dea	-0.072292164
214	0xbc05a398	-0.00815668
215	0x3d420346	0.047366403
216	0xbd89cf9a	-0.0672905
217	0xbdb14425	-0.08655576
218	0x3c9d8224	0.019227095
219	0x3dc300f1	0.09521664
220	0x3d0e2fcb	0.034713548
221	0x3cd9ba7a	0.026578177
222	0x3d7e4e16	0.062086187
223	0xbd76a583	-0.060216438
224	0x3d93b5a6	0.07212381
225	0xbdb18fc5	-0.0867
226	0xbdaf4687	-0.08558374
227	0xbc8f132e	-0.0174652
228	0xbd3ba2d0	-0.045809567
229	0x3db9756a	0.09055598
230	0xbab2d958	-0.0013645096
231	0x3dbfafb7	0.09359687
232	0x3db797dc	0.08964512
233	0xbd46f093	-0.048569273
234	0x3d8d8a4f	0.06911146
235	0x3d8c2d33	0.068445586
236	0xbdbf52c5	-0.09341959
237	0x3c65ff50	0.014037922
238	0xbbcd4a80	-0.0062649846
239	0xbda7a6ea	-0.08186133
240	0x3cde474f	0.027133612
241	0x3dcb3ac9	0.09923322
242	0x3cc41b47	0.023938788
243	0x3dfbfebe	0.123044476
244	0x3d7a5da6	0.061124466
245	0x3cdbb244	0.026818402
246	0xbd819e6a	-0.06329043
247	0xbd8e7251	-0.06955398
248	0x3d2b47e6	0.041816615
249	0xbaade140	-0.0013265982
250	0xbd201f1c	-0.03909217
251	0xbd3d5606	-0.046224616
252	0x3dc40fa1	0.095732935
253	0xbc61d657	-0.013784013
254	0xbcc7e318	-0.024400279
255	0x3d037126	0.03209033

fc2.bias f4 [50]
0	0x3dd4a8fd	0.103837945
1	0x3e25473c	0.16140455
2	0x3d23af5f	0.03996217
3	0xbd3b430a	-0.04571823
4	0x3cee7e17	0.029112859
5	0x3d989fdc	0.07452366
6	0xbd8d7296	-0.06906621
7	0xbd18f21f	-0.03734028
8	0x3d600f48	0.054702073
9	0x3db50275	0.08838359
10	0xbdb3500d	-0.08755503
11	0x3d66fde1	0.05639446
12	0xbae554a7	-0.0017496542
13	0xbcbe37d2	-0.023219977
14	0xbd41e54c	-0.047337815
15	0xbd014965	-0.031564135
16	0xbd260797	-0.040534582
17	0x3d898f1b	0.06716748
18	0x3d5f25c5	0.05447938
19	0x3cf40c63	0.029791063
20	0xbd5ccf08	-0.053908378
21	0xbd957e57	-0.07299488
22	0x3d8b478c	0.06800756
23	0x3d9a5f5e	0.07537721
24	0xbd781a34	-0.060571864
25	0xbd024a4d	-0.03180914
26	0xba008fd0	-0.0004904242
27	0x3d089130	0.033341587
28	0xbd539c96	-0.051663004
29	0xbd812576	-0.06305973
30	0x3da80714	0.08204475
31	0xbd3c1bb7	-0.04592487
32	0x3d23d067	0.03999367
33	0xbc666828	-0.014062919
34	0xbc1cb310	-0.009564176
35	0xbda1c4bf	-0.078988545
36	0x3b327314	0.0027229236
37	0x3c65c03a	0.014022881
38	0xbcd0979e	-0.025462922
39	0x3cf20618	0.029543921
40	0xbd0f0970	-0.03492111
41	0xbca2261c	-0.019793563
42	0xbddeda8b	-0.108815275
43	0x3d89bd35	0.067255415
44	0xbd8017aa	-0.062545136
45	0xbddfaf92	-0.10922159
46	0x3d69feab	0.057127636
47	0x3e0ebee3	0.13940005
48	0x3df29cc1	0.11846305
49	0x3c6760c3	0.014122191

fc3.weight f4 [1, 50]
0	0x3d53a567	0.05167141
1	0x3e15b22b	0.14618747
2	0xbd834397	-0.06409376
3	0xbdafadce	-0.085780725
4	0x3dbd4ca3	0.09243133
5	0x3df382b3	0.11890163
6	0x3a9936ac	0.0011689267
7	0xbb93044d	-0.0044865967
8	0xbbf8131d	-0.007570638
9	0x3dd28343	0.102789424
10	0x3da5d304	0.08096889
11	0x3d519e79	0.051176522
12	0x3df95d5e	0.121760115
13	0x3cecdb95	0.028913299
14	0x3db49cbe	0.08818959
15	0x3dae53ce	0.08512078
16	0x3d74a440	0.059726954
17	0xbb965713	-0.004588017
18	0x3d85281d	0.065017916
19	0xbdaaeda8	-0.083461106
20	0x3dcb9e2b	0.099422775
21	0xbd0447bf	-0.032294985
22	0x3d966ef0	0.073453784
23	0x3c415248	0.011799403
24	0xbdcbe9db	-0.09956714
25	0xbc26174d	-0.010137391
26	0xbccb76e3	-0.024836963
27	0x3d2bcfa3	0.041946065
28	0xbdf139e7	-0.11778622
29	0x3b67d1c7	0.003537284
30	0x3e1e1551	0.15437819
31	0xbd0a6129	-0.033784065
32	0x3cc19662	0.023631278
33	0xbdb086d3	-0.08619466
34	0xbdd9128c	-0.10599241
35	0xbdb315e3	-0.08744409
36	0x3c1d1bc8	0.009589143
37	0xbe040d6e	-0.12895748
38	0x3ce996a4	0.028514214
39	0x3dd2c229	0.10290939
40	0x3d570c10	0.052501738
41	0x3b3d9b22	0.0028931578
42	0xbdcba417	-0.09943407
43	0x3cfe2953	0.031025564
44	0x39859e98	0.00025485898
45	0xbd03ffb0	-0.032226264
46	0xbd64919f	-0.055802938
47	0x3c610b0d	0.013735545
48	0x3da4d534	0.08048478
49	0xbd2a4408	-0.041568786

bn1.weight f4 [100]
0	0x3ef6d308	0.4820788
1	0x3edbe672	0.42949253
2	0x3edfb47a	0.4369238
3	0x3efd7804	0.49505627
4	0x3d1bb710	0.03801638
5	0x3e6e0cdc	0.23247093
6	0x3f031a3c	0.51211905
7	0x3e1b76b0	0.15181994
8	0x3f16c42c	0.58893085
9	0x3f6cb88d	0.924691
10	0x3f43aa15	0.764314
11	0x3f607f2a	0.87694037
12	0x3f0e2178	0.5551982
13	0x3f0aa791	0.54161936
14	0x3e4d106c	0.20025796
15	0x3ee90b08	0.4551623
16	0x3e99c524	0.3003322
17	0x3f64e35d	0.8940943
18	0x3eb1bb7c	0.34713352
19	0x3ed44dc2	0.41465575
20	0x3f5c7cd0	0.8612795
21	0x3cc7e9a0	0.024403393
22	0x3f2968b7	0.6617541
23	0x3f60607e	0.87647235
24	0x3dc7a7d0	0.097488046
25	0x3f2c5af5	0.6732629
26	0x3f260109	0.6484533
27	0x3eeee20c	0.46656835
28	0x3f781ae6	0.96916044
29	0x3f5728c6	0.8404659
30	0x3ec58398	0.3857696
31	0x3ec415e0	0.3829794
32	0x3f0312df	0.5120067
33	0x3e8ab6c2	0.27092558
34	0x3f55bf88	0.8349538
35	0x3f5cd4a7	0.8626198
36	0x3f6e872d	0.9317501
37	0x3e3fe8c8	0.18741143
38	0x3f02c983	0.5108873
39	0x3f4fd05c	0.81177306
40	0x3ed29782	0.41131216
41	0x3e743bd0	0.23850942
42	0x3f0fd3b8	0.5618243
43	0x3d3ff780	0.046866894
44	0x3f74f939	0.95692784
45	0x3e7e77f0	0.2485044
46	0x3f729f15	0.9477399
47	0x3e9f5996	0.31123036
48	0x3f44461b	0.7666947
49	0x3f222162	0.6333219
50	0x3f273ac0	0.6532402
51	0x3f37d4b2	0.7180892
52	0x3e44c004	0.19213873
53	0x3e25480c	0.16140765
54	0x3f1bafc4	0.6081507
55	0x3f7bfa54	0.98428845
56	0x3db940e0	0.09045577
57	0x3f43ace9	0.76435715
58	0x3e9355de	0.2877645
59	0x3f3515a1	0.7073613
60	0x3f422f68	0.75853586
61	0x3f41e7ea	0.757445
62	0x3da16808	0.078811705
63	0x3e4e2a2c	0.20133275
64	0x3d9e6348	0.0773378
65	0x3ecf9e6e	0.4055056
66	0x3ee0caba	0.43904668
67	0x3ee7e1d2	0.45289475
68	0x3f798a4e	0.9747666
69	0x3ef516dc	0.47869003
70	0x3f2ba517	0.6704878
71	0x3db3f7c0	0.08787489
72	0x3f788b2b	0.97087353
73	0x3f366f02	0.71263134
74	0x3f12f48b	0.5740439
75	0x3f48ff1a	0.78514254
76	0x3f5ec455	0.8701833
77	0x3f4faef5	0.8112634
78	0x3e7ac984	0.24490935
79	0x3f384f01	0.7199555
80	0x3e64be84	0.22338301
81	0x3eef11f8	0.46693397
82	0x3f7a22a2	0.97709095
83	0x3f3b33de	0.7312602
84	0x3e778d30	0.24174953
85	0x3d7e72c0	0.062121153
86	0x3f42465a	0.758886
87	0x3f2d2568	0.676352
88	0x3f002f4b	0.50072163
89	0x3ee855c8	0.45377946
90	0x3f001e18	0.5004592
91	0x3f36e282	0.71439373
92	0x3e226df0	0.1586225
93	0x3e81d6f8	0.2535932
94	0x3f7a4fa3	0.97777766
95	0x3f64b3a2	0.893366
96	0x3e7f4f80	0.2493267
97	0x3f1da0e9	0.61573654
98	0x3e467dd0	0.19383931
99	0x3ef50614	0.478562

bn1.bias f4 [100]
0	0x00000000	0.0
1	0x00000000	0.0
2	0x00000000	0.0
3	0x00000000	0.0
4	0x00000000	0.0
5	0x00000000	0.0
6	0x00000000	0.0
7	0x00000000	0.0
8	0x00000000	0.0
9	0x00000000	0.0
10	0x00000000	0.0
11	0x00000000	0.0
12	0x00000000	0.0
13	0x00000000	0.0
14	0x00000000	0.0
15	0x00000000	0.0
16	0x00000000	0.0
17	0x00000000	0.0
18	0x00000000	0.0
19	0x00000000	0.0
20	0x00000000	0.0
21	0x00000000	0.0
22	0x00000000	0.0
23	0x00000000	0.0
24	0x00000000	0.0
25	0x00000000	0.0
26	0x00000000	0.0
27	0x00000000	0.0
28	0x00000000	0.0
29	0x00000000	0.0
30	0x00000000	0.0
31	0x00000000	0.0
32	0x00000000	0.0
33	0x00000000	0.0
34	0x00000000	0.0
35	0x00000000	0.0
36	0x00000000	0.0
37	0x00000000	0.0
38	0x00000000	0.0
39	0x00000000	0.0
40	0x00000000	0.0
41	0x00000000	0.0
42	0x00000000	0.0
43	0x00000000	0.0
44	0x00000000	0.0
45	0x00000000	0.0
46	0x00000000	0.0
47	0x00000000	0.0
48	0x00000000	0.0
49	0x00000000	0.0
50	0x00000000	0.0
51	0x00000000	0.0
52	0x00000000	0.0
53	0x00000000	0.0
54	0x00000000	0.0
55	0x00000000	0.0
56	0x00000000	0.0
57	0x00000000	0.0
58	0x00000000	0.0
59	0x00000000	0.0
60	0x00000000	0.0
61	0x00000000	0.0
62	0x00000000	0.0
63	0x00000000	0.0
64	0x00000000	0.0
65	0x00000000	0.0
66	0x00000000	0.0
67	0x00000000	0.0
68	0x00000000	0.0
69	0x00000000	0.0
70	0x00000000	0.0
71	0x00000000	0.0
72	0x00000000	0.0
73	0x00000000	0.0
74	0x00000000	0.0
75	0x00000000	0.0
76	0x00000000	0.0
77	0x00000000	0.0
78	0x00000000	0.0
79	0x00000000	0.0
80	0x00000000	0.0
81	0x00000000	0.0
82	0x00000000	0.0
83	0x00000000	0.0
84	0x00000000	0.0
85	0x00000000	0.0
86	0x00000000	0.0
87	0x00000000	0.0
88	0x00000000	0.0
89	0x00000000	0.0
90	0x00000000	0.0
91	0x00000000	0.0
92	0x00000000	0.0
93	0x00000000	0.0
94	0x00000000	0.0
95	0x00000000	0.0
96	0x00000000	0.0
97	0x00000000	0.0
98	0x00000000	0.0
99	0x00000000	0.0

bn1.running_mean f4 [100]
0	0x00000000	0.0
1	0x00000000	0.0
2	0x00000000	0.0
3	0x00000000	0.0
4	0x00000000	0.0
5	0x00000000	0.0
6	0x00000000	0.0
7	0x00000000	0.0
8	0x00000000	0.0
9	0x00000000	0.0
10	0x00000000	0.0
11	0x00000000	0.0
12	0x00000000	0.0
13	0x00000000	0.0
14	0x00000000	0.0
15	0x00000000	0.0
16	0x00000000	0.0
17	0x00000000	0.0
18	0x00000000	0.0
19	0x00000000	0.0
20	0x00000000	0.0
21	0x00000000	0.0
22	0x00000000	0.0
23	0x00000000	0.0
24	0x00000000	0.0
25	0x00000000	0.0
26	0x00000000	0.0
27	0x00000000	0.0
28	0x00000000	0.0
29	0x00000000	0.0
30	0x00000000	0.0
31	0x00000000	0.0
32	0x00000000	0.0
33	0x00000000	0.0
34	0x00000000	0.0
35	0x00000000	0.0
36	0x00000000	0.0
37	0x00000000	0.0
38	0x00000000	0.0
39	0x00000000	0.0
40	0x00000000	0.0
41	0x00000000	0.0
42	0x00000000	0.0
43	0x00000000	0.0
44	0x00000000	0.0
45	0x00000000	0.0
46	0x00000000	0.0
47	0x00000000	0.0
48	0x00000000	0.0
49	0x00000000	0.0
50	0x00000000	0.0
51	0x00000000	0.0
52	0x00000000	0.0
53	0x00000000	0.0
54	0x00000000	0.0
55	0x00000000	0.0
56	0x00000000	0.0
57	0x00000000	0.0
58	0x00000000	0.0
59	0x00000000	0.0
60	0x00000000	0.0
61	0x00000000	0.0
62	0x00000000	0.0
63	0x00000000	0.0
64	0x00000000	0.0
65	0x00000000	0.0
66	0x00000000	0.0
67	0x00000000	0.0
68	0x00000000	0.0
69	0x00000000	0.0
70	0x00000000	0.0
71	0x00000000	0.0
72	0x00000000	0.0
73	0x00000000	0.0
74	0x00000000	0.0
75	0x00000000	0.0
76	0x00000000	0.0
77	0x00000000	0.0
78	0x00000000	0.0
79	0x00000000	0.0
80	0x00000000	0.0
81	0x00000000	0.0
82	0x00000000	0.0
83	0x00000000	0.0
84	0x00000000	0.0
85	0x00000000	0.0
86	0x00000000	0.0
87	0x00000000	0.0
88	0x00000000	0.0
89	0x00000000	0.0
90	0x00000000	0.0
91	0x00000000	0.0
92	0x00000000	0.0
93	0x00000000	0.0
94	0x00000000	0.0
95	0x00000000	0.0
96	0x00000000	0.0
97	0x00000000	0.0
98	0x00000000	0.0
99	0x00000000	0.0

bn1.running_var f4 [100]
0	0x3f800000	1.0
1	0x3f800000	1.0
2	0x3f800000	1.0
3	0x3f800000	1.0
4	0x3f800000	1.0
5	0x3f800000	1.0
6	0x3f800000	1.0
7	0x3f800000	1.0
8	0x3f800000	1.0
9	0x3f800000	1.0
10	0x3f800000	1.0
11	0x3f800000	1.0
12	0x3f800000	1.0
13	0x3f800000	1.0
14	0x3f800000	1.0
15	0x3f800000	1.0
16	0x3f800000	1.0
17	0x3f800000	1.0
18	0x3f800000	1.0
19	0x3f800000	1.0
20	0x3f800000	1.0
21	0x3f800000	1.0
22	0x3f800000	1.0
23	0x3f800000	1.0
24	0x3f800000	1.0
25	0x3f800000	1.0
26	0x3f800000	1.0
27	0x3f800000	1.0
28	0x3f800000	1.0
29	0x3f800000	1.0
30	0x3f800000	1.0
31	0x3f800000	1.0
32	0x3f800000	1.0
33	0x3f800000	1.0
34	0x3f800000	1.0
35	0x3f800000	1.0
36	0x3f800000	1.0
37	0x3f800000	1.0
38	0x3f800000	1.0
39	0x3f800000	1.0
40	0x3f800000	1.0
41	0x3f800000	1.0
42	0x3f800000	1.0
43	0x3f800000	1.0
44	0x3f800000	1.0
45	0x3f800000	1.0
46	0x3f800000	1.0
47	0x3f800000	1.0
48	0x3f800000	1.0
49	0x3f800000	1.0
50	0x3f800000	1.0
51	0x3f800000	1.0
52	0x3f800000	1.0
53	0x3f800000	1.0
54	0x3f800000	1.0
55	0x3f800000	1.0
56	0x3f800000	1.0
57	0x3f800000	1.0
58	0x3f800000	1.0
59	0x3f800000	1.0
60	0x3f800000	1.0
61	0x3f800000	1.0
62	0x3f800000	1.0
63	0x3f800000	1.0
64	0x3f800000	1.0
65	0x3f800000	1.0
66	0x3f800000	1.0
67	0x3f800000	1.0
68	0x3f800000	1.0
69	0x3f800000	1.0
70	0x3f800000	1.0
71	0x3f800000	1.0
72	0x3f800000	1.0
73	0x3f800000	1.0
74	0x3f800000	1.0
75	0x3f800000	1.0
76	0x3f800000	1.0
77	0x3f800000	1.0
78	0x3f800000	1.0
79	0x3f800000	1.0
80	0x3f800000	1.0
81	0x3f800000	1.0
82	0x3f800000	1.0
83	0x3f800000	1.0
84	0x3f800000	1.0
85	0x3f800000	1.0
86	0x3f800000	1.0
87	0x3f800000	1.0
88	0x3f800000	1.0
89	0x3f800000	1.0
90	0x3f800000	1.0
91	0x3f800000	1.0
92	0x3f800000	1.0
93	0x3f800000	1.0
94	0x3f800000	1.0
95	0x3f800000	1.0
96	0x3f800000	1.0
97	0x3f800000	1.0
98	0x3f800000	1.0
99	0x3f800000	1.0
