model/nn-classify.model (torch_old, 103889 bytes, 9 tensors)

fc1.weight f4 [100, 200]
000000 f6 11 bd 3c 1e 92 ed bc ec 78 9c 3c 93 bd 8a 3d
       0.023079854 -0.029000338 0.019100629 0.0677444
000010 b0 bc 94 bd da ad 88 3d 4f ae 18 3b ef ec 5a 3d
       -0.07262552 0.066737846 0.0023297255 0.053448614
000020 0f 52 71 3c 2c 6e 6a bc 30 74 a3 3a 1f 7a 7c 3b
       0.014729037 -0.014308494 0.001247054 0.0038524938
000030 8f b2 c3 3c bd dd 13 bd 0a 6d 41 bc d9 07 98 bc
       0.023888854 -0.036100138 -0.011805782 -0.01855843
000040 94 ca 03 3d 39 92 26 ba d0 05 6a 3d c7 b9 0d 3d
       0.032175615 -0.00063541863 0.05713445 0.034601
000050 70 06 1b bd 80 4b 48 bd 75 71 c2 bc 52 32 be bc
       -0.037847936 -0.048900127 -0.023735741 -0.023217354
000060 c2 4f 24 bd d2 99 6c 3c 68 7f 3f 3d 2f ab 11 3c
       -0.040115125 0.0144409705 0.046752363 0.008890911
000070 58 b4 cf bd 39 39 84 3d 46 53 01 3d ff d7 40 3d
       -0.1014182 0.06456227 0.031573556 0.04708099
000080 98 9e 88 3d 33 cd 37 bd 49 54 4f bd fc e7 ac bc
       0.06670874 -0.044873428 -0.05061749 -0.021106713
000090 36 85 96 3d 62 db f8 3b f8 b6 02 3d 05 32 52 bd
       0.07349627 0.007594512 0.031912774 -0.051317234
0000a0 97 b5 da 3d a3 47 26 bd 99 af 17 3d 69 88 24 ba
       0.10679167 -0.04059566 0.037032697 -0.000627643
0000b0 d5 06 c0 bc 07 74 0e 3b 58 25 27 bd 9a 5d 5c 3c
       -0.023440758 0.0021736638 -0.0408071 0.013450051
0000c0 fd 81 59 bd 6b 56 8a 3a 5b 10 f8 bc d0 ec 64 3c
       -0.053102482 0.0010554319 -0.030281236 0.013972476
0000d0 62 2d 57 3d cb 90 ea bc 1d 8a 50 3d e3 da 61 3d
       0.052533515 -0.028633496 0.050912965 0.055140387
0000e0 ab 63 5f 3b f0 7a fa bc a5 b5 c9 3d 6a 4f 2c 3c
       0.0034086506 -0.0305762 0.09849099 0.010516981
0000f0 6b 8b 64 bd bc fd 90 3c ad ae 22 3d 0c 6a a2 3d
       -0.05579702 0.017699115 0.039717365 0.07930383
000100 e4 a8 61 bd 79 2f 15 bd 58 48 a3 3c 83 e7 61 3c
       -0.055092707 -0.036422227 0.019931957 0.013788107
000110 c6 77 8a bd 7d 74 89 bd 8e c3 05 3d 18 71 5a bd
       -0.06761126 -0.067116715 0.0326572 -0.05333051
000120 5b c0 8d 3c 8c 1b ce bc d8 21 90 3d e1 92 3e 3c
       0.017303636 -0.02515962 0.07037705 0.011631698
000130 b9 78 dd 3c 06 56 16 3d 15 6c 81 bd 01 4a e3 3c
       0.027035104 0.036703132 -0.06319443 0.027745249
000140 98 f8 8b bd 98 2a 0e bd 36 66 04 bd 5c fa 64 bc
       -0.06834525 -0.03470859 -0.03232404 -0.013975706
000150 80 f3 b9 3c d8 10 03 bd bf 4d 7c bd b8 97 5d 3d
       0.022699118 -0.031998485 -0.061597582 0.05409977
000160 34 0d 32 bc d8 5c 1c 3d d4 59 88 3c 44 b9 a1 bd
       -0.010867406 0.03817448 0.016644396 -0.07896665
000170 05 1f 2e 3b 02 44 e0 bb 15 bb a6 bd ee 88 75 bd
       0.0026568782 -0.0068440447 -0.08141152 -0.05994504
000180 1a ad d3 3c 06 72 f6 3b 38 e8 36 bd 31 69 ce bc
       0.025839377 0.007520917 -0.044655055 -0.025196644
000190 7d 92 a7 3d 77 81 43 3c db 93 0f 3d ca 9d 32 bc
       0.08182237 0.011932722 0.035053115 -0.010901878
0001a0 fe 06 b3 bd d1 f4 9e bc 1c 6f 20 3d 74 90 9f bb
       -0.08741568 -0.019403847 0.039168462 -0.004869515
0001b0 b9 5c 5e 3d 76 35 42 bd 82 50 bd 3c 98 e5 6c 3d
       0.054287646 -0.047414266 0.023109678 0.057836145
0001c0 3a 6b 5e 3d 67 fd 71 bd 03 c7 6b 3c 36 01 49 3d
       0.054301478 -0.059079554 0.01439071 0.04907342
0001d0 72 d2 ec 3c f0 99 99 3d cf 1f 43 bd 30 50 38 bd
       0.028908942 0.075000644 -0.047637757 -0.044998348
0001e0 91 a3 fc bc d0 be 77 bb f2 27 92 3d da 09 4c bd
       -0.030839713 -0.0037802942 0.07136525 -0.049814083
0001f0 e0 60 08 3c 97 cd f5 bc 40 9f ba bd 07 0a bb bc
       0.008323878 -0.03000526 -0.09112406 -0.02283193
000200 43 a1 54 3c ef 5f ca 3d 13 fe 2f bd 10 de e7 3c
       0.012977901 0.09881579 -0.042966913 0.02830413
000210 89 9e 6a 3d d9 20 8a 3d 10 be 37 3d 7f ef 5f 3d
       0.057280097 0.067445464 0.044858992 0.05467176
000220 08 43 64 3d ec 84 01 3d 7d 82 99 3c 5b d1 cf bc
       0.05572799 0.031620905 0.01873898 -0.025368383
000230 41 1f 5e 3c 87 28 d3 bc 1e bb 4b bd 0f a6 cb 3c
       0.013557256 -0.02577616 -0.049738996 0.024859456
000240 37 95 66 3c 07 d4 11 bd 91 28 9c 3d a0 81 3a 3d
       0.0140736615 -0.035602596 0.07624925 0.045533776
000250 c9 ca b4 3c 51 bf b7 3d 9c 5b 16 bd ff ad 2e 3d
       0.022069352 0.089720376 -0.03670846 0.042646404
000260 1f 48 d2 bb 8a 4b 00 bd e4 ff c6 bd b6 94 0b bd
       -0.006417289 -0.03132204 -0.09716776 -0.03407737
000270 be bb cc bc 38 7a 0d bd d3 83 79 3d 12 76 94 bc
       -0.024991866 -0.034540385 0.060916733 -0.018122707
000280 79 4d dd 3b 7f 18 5d 3b bb 48 cc 3c f0 6f 5d 3d
       0.00675362 0.0033736525 0.024937024 0.05406183
000290 ca 77 11 bd 53 04 0c bb 51 82 4f 3c 75 74 1b bd
       -0.03551463 -0.0021364882 0.012665347 -0.03795286
0002a0 39 aa 32 bd cb 3a 1b bd 28 89 98 bc 30 69 30 3d
       -0.04361937 -0.037897866 -0.018620089 0.043069065
0002b0 05 75 2b bc 2e 55 d7 3c ae ff a3 3d 2b 49 5d 3d
       -0.010464911 0.026285734 0.080077514 0.054024857
0002c0 d6 f6 73 3d 1d b5 3b 3d 70 46 a9 bd b6 07 82 3d
       0.059561573 0.04582702 -0.08265388 0.06349127
0002d0 30 89 e0 bc f7 ed 18 3c bd 6b dc bc 14 c0 50 bd
       -0.027409166 0.009334079 -0.026906842 -0.05096443
0002e0 60 de 03 bd eb 85 ae 3d 10 7d 60 bd 77 92 a8 bd
       -0.032194495 0.085216366 -0.05480677 -0.08231061
0002f0 77 31 97 3c 71 39 02 bd 99 16 02 3d db 65 7c bd
       0.018456204 -0.03179306 0.031759832 -0.061620574
000300 df 74 13 3a 5d c0 8d bc 54 68 93 3d ea 15 6e bd
       0.000562502 -0.01730364 0.071976334 -0.058126368
000310 b9 cb 71 3c 5f ec 36 3d 82 10 f3 3d e8 de 01 bd
       0.014758044 0.044659015 0.11868383 -0.03170672
000320 22 6a b8 3c 67 33 59 bd d1 5e ad 3d 8c 22 e5 ba
       0.022511546 -0.053027537 0.084653504 -0.0017481609
000330 7c 75 44 3d 14 be 5e 3c 0a 00 4d 39 87 0a 06 3d
       0.047963604 0.013595123 0.00019550338 0.032724883
000340 35 e9 c3 bc db 42 47 bd 47 4e 74 3b f9 8b 1a 3c
       -0.023914913 -0.048647743 0.0037278102 0.009432786
000350 7e 67 f7 bd 3e d4 db 3c 3a 0b 58 3d ef 6b 9f 3d
       -0.120802864 0.026834603 0.05274508 0.077842586
000360 5b 2e 43 3d 1d e1 7a bd 4a b3 39 bd 2e 44 97 3d
       0.04765163 -0.06124984 -0.045337 0.07386051
000370 ea a4 88 bd 4a e5 6e 3d 2f 8c 53 bd 61 18 84 bd
       -0.0667208 0.058324136 -0.05164736 -0.064499624
000380 e3 e5 f4 3c 00 9c 28 bd 05 fa 45 bc 6f c7 90 3d
       0.029894775 -0.0411644 -0.012083535 0.07069289
000390 2c 8e a0 3c d5 fb 54 3d 6c bd 10 3a 3f d5 7a bd
       0.019599043 0.05199798 0.000552139 -0.061238524
0003a0 5f 49 4d 3d e4 b9 86 bc ab 3a 4f 3c fb 69 ed 3c
       0.0501188 -0.016446061 0.012648265 0.0289812
0003b0 72 9e 3e bd 1c cf 51 3d 0a 25 29 3d cc 67 9a bd
       -0.046537824 0.051222906 0.04129509 -0.07539329
0003c0 4e 8a ba bd 07 22 0b bc 50 a0 13 bc 7e cb 98 bc
       -0.09108411 -0.0084919995 -0.009010389 -0.01865172
0003d0 91 11 6a bd 1f d4 a6 bc c3 d2 93 bd 7b 19 30 bd
       -0.05714566 -0.02036482 -0.07217934 -0.04299305
0003e0 50 05 89 3c 58 32 be 3d 21 0f bd 3d 91 a9 c9 ba
       0.016726166 0.09286946 0.09231401 -0.0015385618
0003f0 84 48 2f 3d 00 f0 b1 3c d8 0e ac 3b 20 14 07 bd
       0.042793766 0.021720886 0.005250793 -0.032978177

fc1.bias f4 [100]
000000 13 1d 97 3d 73 2e d3 bd b2 7f cf 3d e2 f5 0a bd
       0.07378592 -0.10311594 0.10131778 -0.0339259
000010 dd c8 b3 3c e3 3c 81 3d ce d2 f6 3d fc db 98 bc
       0.021946365 0.06310441 0.120519266 -0.018659584
000020 8d 2b a3 3c 40 12 2a bd 37 ba 40 bc 8e 2e 0e 3d
       0.019918228 -0.04152131 -0.011763147 0.034712367
000030 1b 5b b4 3c b6 78 08 3c 63 fe 70 3d 8b 80 c1 3c
       0.022016099 0.008329561 0.058836352 0.023620864
000040 8e 3f a4 bd 49 6a 7e 3c 55 bb e0 bc 0e 55 66 bd
       -0.080199346 0.01552827 -0.027433077 -0.05623346
000050 f9 a2 8b 3d 5d 0c 99 bc c7 de 08 bd e0 b1 6f bb
       0.06818194 -0.018682653 -0.033415582 -0.0036574528
000060 f3 9c 9e bd 18 e5 14 bc da 47 e6 bc b4 6a 33 ba
       -0.077447794 -0.009087823 -0.028110433 -0.0006844208
000070 4c f0 70 bd 65 4a 4a 3a 5f d2 e9 bb 70 ae 8c bd
       -0.058822915 0.0007716774 -0.007135674 -0.06869209
000080 aa 64 5b bd a7 05 03 3d c4 bd bb 3c e1 d5 3c bc
       -0.053562798 0.031987812 0.022917636 -0.011525602
000090 ed 43 d5 3c 1d 8c 39 bd 83 f6 c9 bd 97 ad f5 3c
       0.026033366 -0.045299638 -0.098614715 0.02999
0000a0 af b5 37 3d c4 ee 35 3d 36 70 6d 3d f5 83 e2 3c
       0.044851 0.044417158 0.05796834 0.027650813
0000b0 d2 1d d7 3b 15 7f 11 bd d5 4d 7f 3d 65 9d a6 bb
       0.006564834 -0.035521585 0.062330086 -0.005084681
0000c0 70 1e 01 3e cc 73 81 bd a2 f1 13 3d a1 67 d0 3c
       0.12609267 -0.063209146 0.03611911 0.02544004
0000d0 04 e8 21 3d af af 2a bd c6 ec 93 ba 12 90 8d bc
       0.039527908 -0.04167145 -0.0011285774 -0.017280612
0000e0 46 4c 78 3d 8a e0 cb 3d 09 73 ce 3c 22 72 95 3d
       0.060619615 0.09954937 0.025201337 0.0729716
0000f0 9e ba a4 3d 9f 13 78 3c fd 4b 8b bc 8a 70 3d 3d
       0.08043407 0.015141397 -0.017004007 0.046249904
000100 1a 40 af bd a1 cd 0e 3d e0 36 e4 3c 02 3a f3 3c
       -0.08557148 0.03486407 0.027858198 0.029690746
000110 58 bb 57 bd af 50 5b 3d 87 8c 4b bd 15 6b df bd
       -0.0526689 0.053543743 -0.049694564 -0.10909096
000120 c7 44 2a 3d 33 a5 fe 3d c3 23 89 3c 7b d7 b9 bc
       0.041569497 0.12433853 0.016740685 -0.022685757
000130 cd 90 17 bd 10 39 6c 3d 9c 9e 50 bc 84 6b 67 bc
       -0.037003327 0.057671607 -0.012733128 -0.014124755
000140 4d 36 27 3c fd a1 46 3d c8 40 88 3d 20 78 1f 3d
       0.010205817 0.048494328 0.06652981 0.03893292
000150 5e 69 29 3d 99 f2 09 bd 19 12 ed bd 42 13 e6 ba
       0.04136025 -0.033678625 -0.115757175 -0.0017553347
000160 9a 44 3e bd e7 83 f9 bc 8f 86 d3 3c 30 fd 8a bb
       -0.046452142 -0.030458404 0.025820998 -0.004241608
000170 0b 75 07 bd 57 b2 c2 3d ec 7c c1 bc 66 f5 90 3c
       -0.033070605 0.09506672 -0.023619138 0.01769514
000180 de ab d2 3d fd c1 09 bb ef 08 0f 3b 7d 89 07 3d
       0.10286687 -0.0021020167 0.0021825393 0.033090103

fc2.weight f4 [50, 100]
000000 19 88 a2 3d 01 7f f2 bd 10 55 8f 3d 4a 99 6d bd
       0.07936115 -0.1184063 0.06998646 -0.058007516
000010 33 79 95 3c 92 68 5f 3d 00 35 24 3d 80 94 91 bd
       0.018246269 0.054543085 0.040089607 -0.07108402
000020 b0 a8 26 bd 38 4b a1 bd ff 19 21 3d 3b 01 34 bd
       -0.040688217 -0.07875675 0.039331432 -0.043946486
000030 3d e6 bf bd c0 32 f4 3a 9b a4 bf bc b0 a4 b3 bb
       -0.09370086 0.0018630847 -0.02339392 -0.0054822788
000040 6f 14 be bd f2 9f 60 3d eb 49 8d bd 25 bb 9d bd
       -0.09281241 0.054840036 -0.06898864 -0.077017106
000050 e9 d0 7d bd 0a 5a 0e 3d 14 76 cc 3c 13 61 b4 bd
       -0.06196681 0.034753837 0.024958648 -0.08807578
000060 8c 34 97 3c bc 5d c2 3c 99 32 43 bd ce 02 58 3d
       0.018457673 0.023726337 -0.047655676 0.05273705
000070 32 f4 18 3d 50 f4 c8 bb f5 10 2e bc 58 00 16 bc
       0.037342258 -0.00613264 -0.01062416 -0.009155355
000080 51 5d 38 bd 64 c7 f7 3c 70 d5 b0 bd 9b f1 81 bd
       -0.04501087 0.030246444 -0.0863446 -0.06344911
000090 82 2b c7 bc d7 23 4c bd 4a 0e 6e 3d e8 4e 22 bd
       -0.024312738 -0.049838867 0.058119096 -0.039626032
0000a0 88 4f ae bc 71 1a 97 3d bf 08 85 3d ba dc 51 bd
       -0.021278158 0.0737809 0.06495809 -0.051235892
0000b0 96 38 d6 3c d2 82 52 bd f6 84 a1 3d a8 78 cc bd
       0.02615003 -0.05139429 0.078866884 -0.09983951
0000c0 6f 96 bd bd 4c a8 bf bc 14 ac af bc 07 a2 65 3c
       -0.092572086 -0.02339568 -0.021444358 0.014015681
0000d0 f0 de 05 3c 0b 1c bd bd 83 d5 08 bd a2 74 49 3d
       0.008170828 -0.092338644 -0.033406746 0.049183495
0000e0 73 73 e4 3c fd e6 95 bd 2b 16 2a 3d 0d f7 da bd
       0.027887082 -0.07319448 0.041525047 -0.106916524
0000f0 b0 e3 c8 bd fc c7 dd bc cb a0 6c bb b6 4a 0b 3c
       -0.09809053 -0.027072899 -0.0036106582 0.008501699
000100 d5 93 c2 ba f6 e6 2b 3d 05 67 d9 bd 5d f1 bb bd
       -0.0014845083 0.04196831 -0.106153525 -0.09176896
000110 0a c5 1f bd cf 58 da bd 72 24 ad 3c 01 a2 89 39
       -0.03900627 -0.1066147 0.021135543 0.0002625138
000120 48 a7 9f 3d a7 af 41 3d cd 08 cf 3c 5a e4 d1 bc
       0.07795578 0.047286656 0.025272751 -0.025621582
000130 17 f6 91 3d 61 3f 62 3d 12 43 6a 3d e5 b0 7f 3d
       0.07127016 0.055236224 0.05719287 0.06242456
000140 09 5d 9a bd 64 a1 5d bd 1f 4c 92 bd 8c 3e 2f 3a
       -0.07537276 -0.054108992 -0.07143425 0.00066850404
000150 98 cb 92 bd 8e c8 06 3d ac f3 cc bd a8 f4 b7 bd
       -0.07167739 0.032906108 -0.10007414 -0.08982211
000160 0b 72 b7 3d 74 8d 0b bd 97 fa 9d bd 69 09 8e 3d
       0.08957299 -0.034070447 -0.07713812 0.069353886
000170 20 d1 ee 3c 16 c2 e3 bd aa a5 48 bd 13 00 12 3d
       0.029152453 -0.11121003 -0.048986115 0.035644602
000180 3c 4f 3c bd c6 89 92 3d 07 6f 7a bd 14 34 7e 3d
       -0.045974 0.071551844 -0.06114104 0.062061384
000190 2a 1a 1b 3c 39 9f 15 bd 83 34 1c 3d 69 72 b6 bb
       0.009466687 -0.0365288 0.038136017 -0.005567838
0001a0 76 2b e9 bd 80 26 92 3c cf 75 d5 3c 28 11 0a 3c
       -0.11385243 0.017840624 0.026057152 0.008426942
0001b0 51 f4 8c 3d 91 f7 c8 3d e2 c2 5a bc e0 ca 4d bd
       0.06882537 0.098128445 -0.013352128 -0.050242305
0001c0 3f 0e c1 bd c5 e0 bf 3d 90 d7 7b bc 1f 37 b4 3d
       -0.09426545 0.09369043 -0.015371218 0.08799576
0001d0 60 19 b5 bc 00 6b 2d bb 28 13 dc bb 45 fb 8d bd
       -0.022106826 -0.0026461482 -0.006716151 -0.069326915
0001e0 f0 62 d6 bd 86 dd 55 3d d1 0e 81 bd 75 d3 ba bd
       -0.104680896 0.052213214 -0.06301654 -0.091223635
0001f0 23 10 2c bd d2 d4 97 3d 38 17 88 3d 1a 98 4b 3d
       -0.042007577 0.07413639 0.066450536 0.049705602
000200 45 b5 1d 3c 44 55 d6 3c b6 bd b9 bc da 13 ab bd
       0.009625738 0.026163705 -0.022673469 -0.08353396
000210 0e f6 cd bd 8e 1f a2 3d 2b c1 95 bd a3 e8 cf bd
       -0.10056697 0.07916175 -0.073122345 -0.10151794
000220 53 6b 18 3d 98 0d 81 3c 5c 69 e4 3c 64 81 3d bd
       0.037211727 0.015753552 0.02788227 -0.046265975
000230 70 3f bc bd 62 29 3f bd 12 11 08 3d 4c 40 b2 3d
       -0.09191787 -0.046670325 0.033219405 0.0870367
000240 5e e0 cf bd ff 72 aa bd 49 ff 76 3d 87 03 c8 bd
       -0.101502165 -0.08322715 0.060302053 -0.09766298
000250 03 84 91 3b 77 27 1c bd 9e 30 50 bd 32 d3 9c 3b
       0.004440786 -0.038123574 -0.050827615 0.0047859186
000260 fa a3 98 bd c0 83 08 3b bb 3b 92 3c 6a c9 2c 3d
       -0.07453151 0.0020830482 0.017850747 0.04218427
000270 61 30 7c bd 4a 0c d8 bd e5 d6 fa bc 9a f0 9a 3d
       -0.061569575 -0.10549219 -0.030620048 0.07565422
000280 04 f0 e7 3b f1 21 64 3d 9d 51 0a be be 2c 9d bd
       0.0070781726 0.05569643 -0.13507695 -0.076745495
000290 9f 8b ec 3b 06 f5 9a bd cf 66 7c bd 77 0b 0c bd
       0.0072187926 -0.07566266 -0.061621483 -0.03419062
0002a0 60 99 01 bd fa 1a db bc 4f 28 9c 3c 3b 5d a4 3b
       -0.03164041 -0.026746262 0.01906219 0.0050159968
0002b0 6c 7a 29 3d e9 94 8f 3d 09 a3 8b bd df d3 ba bc
       0.041376516 0.07010824 -0.06818206 -0.022806106
0002c0 d8 5f 1e bc 1e 4c 54 3c 43 a1 96 bd 46 c9 a3 bd
       -0.009666406 0.012957601 -0.07354977 -0.07997374
0002d0 d9 bf 88 bd f8 e4 59 3d 34 11 e4 3c 47 74 98 bd
       -0.06677217 0.053196877 0.027840234 -0.07444053
0002e0 62 72 da 3d 40 b1 ff bc 95 34 05 3d 1c 60 d9 bb
       0.10666348 -0.03121245 0.03252085 -0.0066337716
0002f0 a0 8b bd bb 80 00 8d 3a 37 71 26 3d 4e 3a 8e bd
       -0.005784467 0.0010757595 0.040635314 -0.069447145
000300 ea b5 3e 3d 35 33 79 bd 67 5e 63 bd 9a bc d5 bd
       0.046560206 -0.06083985 -0.05550995 -0.104363635
000310 c6 53 33 bd 1f fd 8e 3d 73 1b aa 3d bc 5d c0 bd
       -0.043781064 0.06981873 0.08306017 -0.093928784
000320 48 9a 02 3e bd 9d 0d bd a2 11 1c 3d 9d a6 82 bd
       0.12754166 -0.03457426 0.038102753 -0.06379435
000330 d8 76 99 b9 a5 d7 ab 3d e5 6e 18 3e 89 b3 a0 3d
       -0.0002927098 0.0839074 0.14886053 0.078467436
000340 1c 4b 9d 3d cc 96 0f bd 9a 5c 75 bd 19 85 e9 bb
       0.076803416 -0.03505592 -0.059902765 -0.007126462
000350 80 8b 18 3d ea 0d 94 bd 0f e5 2b bc a5 f1 2b 3d
       0.037242413 -0.072292164 -0.010491624 0.041978497
000360 d1 c2 70 bd 2a b9 b4 bd e2 b8 9f 3d f1 00 c3 3d
       -0.05877954 -0.0882438 0.077989355 0.09521664
000370 d5 ee b6 3c c0 c3 65 3c 4b e1 c3 3d 83 a5 76 bd
       0.02233068 0.014023721 0.095644556 -0.060216438
000380 23 ad ca 3d 56 61 a9 bd b7 71 c3 bd 0b 04 99 bb
       0.098963045 -0.082705185 -0.09543174 -0.0046696714
000390 af 01 8b 3c d0 63 08 3e cc cb 19 bc b7 af bf 3d
       0.016968576 0.13319325 -0.009386968 0.09359687
0003a0 b9 e8 0c 3e 93 f0 46 bd 4f 8a 8d 3d a7 ba 81 3d
       0.13760652 -0.048569273 0.06911146 0.06334429
0003b0 00 43 8f bd 50 ff 65 3c df 7f 6d bc f1 e8 34 bd
       -0.06995201 0.014037922 -0.014495819 -0.044167463
0003c0 c0 28 c7 3c c9 3a cb 3d 84 81 90 3c 4d aa 0a 3e
       0.024311423 0.09923322 0.017639883 0.13541527
0003d0 f7 a9 a9 3d a4 1b b2 3c 77 7a 8b bd da 19 05 bd
       0.08284371 0.021741696 -0.06810468 -0.032495357
0003e0 69 34 23 3d 40 e1 ad ba db 0b 3f bd 42 5a e2 bb
       0.039844904 -0.0013265982 -0.046642166 -0.006907732
0003f0 61 a0 d7 3d f4 c7 8c bc c7 c3 08 bd 26 71 03 3d
       0.10528637 -0.017185189 -0.033389833 0.03209033

fc2.bias f4 [50]
000000 6f 8b b5 3c a3 67 bc 3d 5d 3e 9a 3d 81 c6 d9 3c
       0.022161214 0.09199455 0.07531426 0.026583912
000010 50 16 f4 39 e9 f2 a2 3c 54 a8 91 bc 0f bb 0c 3c
       0.0004655593 0.01989122 -0.01778046 0.00858952
000020 4b 8f f3 3d 41 69 77 bc 0d 50 b3 bd 19 bd 1c 3c
       0.11892565 -0.015100778 -0.08755503 0.009566569
000030 d3 f2 48 bd ad 77 ac bd bc 5e 42 bd cd 8b ae bd
       -0.0490597 -0.08421264 -0.047453627 -0.08522759
000040 99 2c 92 bd 83 ab 9f 3d 54 48 40 3d 92 e9 e4 3d
       -0.071374126 0.07796385 0.046943977 0.111773625
000050 10 aa bd bd 97 ae 5b bd 73 43 50 3b 85 c5 73 bc
       -0.092609525 -0.0536333 0.0031778484 -0.014878635
000060 cb c2 7b 3d 13 d3 83 3d 19 d5 cf 3d 1b a0 cb bb
       0.061465066 0.064367436 0.10148067 -0.0062141544
000070 41 ff 08 bc 01 61 8f bc 87 14 a8 3c b6 85 4e 3d
       -0.0083616385 -0.01750231 0.0205176 0.050420485
000080 36 9f 26 bd b9 14 52 3d 29 b3 8f 3d 94 05 08 bc
       -0.04067918 0.051289294 0.07016594 -0.008302111
000090 3d dc 84 bd b2 94 eb 3d 83 eb ea bd 08 52 45 bd
       -0.064873196 0.11502971 -0.114707015 -0.048173934
0000a0 db 33 4e bd ec 9b 96 bc 70 bc b6 bd e2 8b 23 bd
       -0.050342422 -0.018384896 -0.0892266 -0.039928325
0000b0 8d 27 d4 bc f0 c1 18 bd 34 5c ee 3d a0 a1 52 3d
       -0.025897766 -0.03729433 0.1163868 0.05142367
0000c0 1f 36 5d 3d 3e 99 cd 3d
       0.054006692 0.10038994

fc3.weight f4 [1, 50]
000000 96 11 3e 3d ca 74 2c 3e 32 01 8b bd 79 db ba bd
       0.04640349 0.16841426 -0.06787337 -0.09123892
000010 8d a2 a7 3d 0f 17 f6 3d 22 ba 9f bd 42 5a bd b8
       0.08185301 0.12016117 -0.07799174 -9.029034e-05
000020 1c 6e 0d bc 65 97 88 3d 04 d3 a5 3d ec 5a 3e 3d
       -0.008632209 0.06669501 0.08096889 0.04647343
000030 7d a1 00 3e ea 8f 52 3d da 3e b5 3d 8c 0f af 3d
       0.12561603 0.05140678 0.088498786 0.08547887
000040 f8 41 5d 3d 20 9f ca 3b 39 ef 73 3d 9f 04 c5 bd
       0.05401799 0.00618352 0.059554312 -0.09620022
000050 df 4e e1 3d 3f e4 0d bd 09 54 96 3d 19 28 e0 3b
       0.110013716 -0.0346415 0.07340247 0.0068407175
000060 87 80 6f be cf d2 7a bc 0b 82 65 bd a1 e0 ff 3c
       -0.23388873 -0.01530905 -0.05603222 0.031235041
000070 0e 63 08 be db 6f 69 bc 83 43 f5 3d 30 7c 18 bd
       -0.13319036 -0.01424786 0.119757675 -0.03722781
000080 95 63 bc 3c 43 ce d8 bd 4f 84 03 be a0 0b ab bd
       0.022996703 -0.10586216 -0.1284344 -0.08351827
000090 06 c8 c4 3a 8b 80 0b be 69 03 06 3d 5b 07 c5 3d
       0.0015013225 -0.13623254 0.032718096 0.096205436
0000a0 34 6c 41 3d a1 ad 5e 3c 11 8d da bd 7f 39 62 3c
       0.04722233 0.013591201 -0.106714375 0.013807653
0000b0 1c 26 af bc b5 32 49 bd 9e 0d 3f bd 72 10 99 3b
       -0.021380477 -0.049120624 -0.046643846 0.00467115
0000c0 70 1a 7f 3d 02 57 04 be
       0.062281072 -0.12923816

bn1.weight f4 [100]
000000 08 d3 f6 3e 72 e6 db 3e 7a b4 df 3e 04 78 fd 3e
       0.4820788 0.42949253 0.4369238 0.49505627
000010 10 b7 1b 3d dc 0c 6e 3e 3c 1a 03 3f b0 76 1b 3e
       0.03801638 0.23247093 0.51211905 0.15181994
000020 2c c4 16 3f 8d b8 6c 3f 15 aa 43 3f 2a 7f 60 3f
       0.58893085 0.924691 0.764314 0.87694037
000030 78 21 0e 3f 91 a7 0a 3f 6c 10 4d 3e 08 0b e9 3e
       0.5551982 0.54161936 0.20025796 0.4551623
000040 24 c5 99 3e 5d e3 64 3f 7c bb b1 3e c2 4d d4 3e
       0.3003322 0.8940943 0.34713352 0.41465575
000050 d0 7c 5c 3f a0 e9 c7 3c b7 68 29 3f 7e 60 60 3f
       0.8612795 0.024403393 0.6617541 0.87647235
000060 d0 a7 c7 3d f5 5a 2c 3f 09 01 26 3f 0c e2 ee 3e
       0.097488046 0.6732629 0.6484533 0.46656835
000070 e6 1a 78 3f c6 28 57 3f 98 83 c5 3e e0 15 c4 3e
       0.96916044 0.8404659 0.3857696 0.3829794
000080 df 12 03 3f c2 b6 8a 3e 88 bf 55 3f a7 d4 5c 3f
       0.5120067 0.27092558 0.8349538 0.8626198
000090 2d 87 6e 3f c8 e8 3f 3e 83 c9 02 3f 5c d0 4f 3f
       0.9317501 0.18741143 0.5108873 0.81177306
0000a0 82 97 d2 3e d0 3b 74 3e b8 d3 0f 3f 80 f7 3f 3d
       0.41131216 0.23850942 0.5618243 0.046866894
0000b0 39 f9 74 3f f0 77 7e 3e 15 9f 72 3f 96 59 9f 3e
       0.95692784 0.2485044 0.9477399 0.31123036
0000c0 1b 46 44 3f 62 21 22 3f c0 3a 27 3f b2 d4 37 3f
       0.7666947 0.6333219 0.6532402 0.7180892
0000d0 04 c0 44 3e 0c 48 25 3e c4 af 1b 3f 54 fa 7b 3f
       0.19213873 0.16140765 0.6081507 0.98428845
0000e0 e0 40 b9 3d e9 ac 43 3f de 55 93 3e a1 15 35 3f
       0.09045577 0.76435715 0.2877645 0.7073613
0000f0 68 2f 42 3f ea e7 41 3f 08 68 a1 3d 2c 2a 4e 3e
       0.75853586 0.757445 0.078811705 0.20133275
000100 48 63 9e 3d 6e 9e cf 3e ba ca e0 3e d2 e1 e7 3e
       0.0773378 0.4055056 0.43904668 0.45289475
000110 4e 8a 79 3f dc 16 f5 3e 17 a5 2b 3f c0 f7 b3 3d
       0.9747666 0.47869003 0.6704878 0.08787489
000120 2b 8b 78 3f 02 6f 36 3f 8b f4 12 3f 1a ff 48 3f
       0.97087353 0.71263134 0.5740439 0.78514254
000130 55 c4 5e 3f f5 ae 4f 3f 84 c9 7a 3e 01 4f 38 3f
       0.8701833 0.8112634 0.24490935 0.7199555
000140 84 be 64 3e f8 11 ef 3e a2 22 7a 3f de 33 3b 3f
       0.22338301 0.46693397 0.97709095 0.7312602
000150 30 8d 77 3e c0 72 7e 3d 5a 46 42 3f 68 25 2d 3f
       0.24174953 0.062121153 0.758886 0.676352
000160 4b 2f 00 3f c8 55 e8 3e 18 1e 00 3f 82 e2 36 3f
       0.50072163 0.45377946 0.5004592 0.71439373
000170 f0 6d 22 3e f8 d6 81 3e a3 4f 7a 3f a2 b3 64 3f
       0.1586225 0.2535932 0.97777766 0.893366
000180 80 4f 7f 3e e9 a0 1d 3f d0 7d 46 3e 14 06 f5 3e
       0.2493267 0.61573654 0.19383931 0.478562

bn1.bias f4 [100]
000000 00 00 00 00 00 00 00 00 00 00 00 00 00 00 00 00
       0.0 0.0 0.0 0.0
000010 00 00 00 00 00 00 00 00 00 00 00 00 00 00 00 00
       0.0 0.0 0.0 0.0
000020 00 00 00 00 00 00 00 00 00 00 00 00 00 00 00 00
       0.0 0.0 0.0 0.0
000030 00 00 00 00 00 00 00 00 00 00 00 00 00 00 00 00
       0.0 0.0 0.0 0.0
000040 00 00 00 00 00 00 00 00 00 00 00 00 00 00 00 00
       0.0 0.0 0.0 0.0
000050 00 00 00 00 00 00 00 00 00 00 00 00 00 00 00 00
       0.0 0.0 0.0 0.0
000060 00 00 00 00 00 00 00 00 00 00 00 00 00 00 00 00
       0.0 0.0 0.0 0.0
000070 00 00 00 00 00 00 00 00 00 00 00 00 00 00 00 00
       0.0 0.0 0.0 0.0
000080 00 00 00 00 00 00 00 00 00 00 00 00 00 00 00 00
       0.0 0.0 0.0 0.0
000090 00 00 00 00 00 00 00 00 00 00 00 00 00 00 00 00
       0.0 0.0 0.0 0.0
0000a0 00 00 00 00 00 00 00 00 00 00 00 00 00 00 00 00
       0.0 0.0 0.0 0.0
0000b0 00 00 00 00 00 00 00 00 00 00 00 00 00 00 00 00
       0.0 0.0 0.0 0.0
0000c0 00 00 00 00 00 00 00 00 00 00 00 00 00 00 00 00
       0.0 0.0 0.0 0.0
0000d0 00 00 00 00 00 00 00 00 00 00 00 00 00 00 00 00
       0.0 0.0 0.0 0.0
0000e0 00 00 00 00 00 00 00 00 00 00 00 00 00 00 00 00
       0.0 0.0 0.0 0.0
0000f0 00 00 00 00 00 00 00 00 00 00 00 00 00 00 00 00
       0.0 0.0 0.0 0.0
000100 00 00 00 00 00 00 00 00 00 00 00 00 00 00 00 00
       0.0 0.0 0.0 0.0
000110 00 00 00 00 00 00 00 00 00 00 00 00 00 00 00 00
       0.0 0.0 0.0 0.0
000120 00 00 00 00 00 00 00 00 00 00 00 00 00 00 00 00
       0.0 0.0 0.0 0.0
000130 00 00 00 00 00 00 00 00 00 00 00 00 00 00 00 00
       0.0 0.0 0.0 0.0
000140 00 00 00 00 00 00 00 00 00 00 00 00 00 00 00 00
       0.0 0.0 0.0 0.0
000150 00 00 00 00 00 00 00 00 00 00 00 00 00 00 00 00
       0.0 0.0 0.0 0.0
000160 00 00 00 00 00 00 00 00 00 00 00 00 00 00 00 00
       0.0 0.0 0.0 0.0
000170 00 00 00 00 00 00 00 00 00 00 00 00 00 00 00 00
       0.0 0.0 0.0 0.0
000180 00 00 00 00 00 00 00 00 00 00 00 00 00 00 00 00
       0.0 0.0 0.0 0.0

bn1.running_mean f4 [100]
000000 00 00 00 00 00 00 00 00 00 00 00 00 00 00 00 00
       0.0 0.0 0.0 0.0
000010 00 00 00 00 00 00 00 00 00 00 00 00 00 00 00 00
       0.0 0.0 0.0 0.0
000020 00 00 00 00 00 00 00 00 00 00 00 00 00 00 00 00
       0.0 0.0 0.0 0.0
000030 00 00 00 00 00 00 00 00 00 00 00 00 00 00 00 00
       0.0 0.0 0.0 0.0
000040 00 00 00 00 00 00 00 00 00 00 00 00 00 00 00 00
       0.0 0.0 0.0 0.0
000050 00 00 00 00 00 00 00 00 00 00 00 00 00 00 00 00
       0.0 0.0 0.0 0.0
000060 00 00 00 00 00 00 00 00 00 00 00 00 00 00 00 00
       0.0 0.0 0.0 0.0
000070 00 00 00 00 00 00 00 00 00 00 00 00 00 00 00 00
       0.0 0.0 0.0 0.0
000080 00 00 00 00 00 00 00 00 00 00 00 00 00 00 00 00
       0.0 0.0 0.0 0.0
000090 00 00 00 00 00 00 00 00 00 00 00 00 00 00 00 00
       0.0 0.0 0.0 0.0
0000a0 00 00 00 00 00 00 00 00 00 00 00 00 00 00 00 00
       0.0 0.0 0.0 0.0
0000b0 00 00 00 00 00 00 00 00 00 00 00 00 00 00 00 00
       0.0 0.0 0.0 0.0
0000c0 00 00 00 00 00 00 00 00 00 00 00 00 00 00 00 00
       0.0 0.0 0.0 0.0
0000d0 00 00 00 00 00 00 00 00 00 00 00 00 00 00 00 00
       0.0 0.0 0.0 0.0
0000e0 00 00 00 00 00 00 00 00 00 00 00 00 00 00 00 00
       0.0 0.0 0.0 0.0
0000f0 00 00 00 00 00 00 00 00 00 00 00 00 00 00 00 00
       0.0 0.0 0.0 0.0
000100 00 00 00 00 00 00 00 00 00 00 00 00 00 00 00 00
       0.0 0.0 0.0 0.0
000110 00 00 00 00 00 00 00 00 00 00 00 00 00 00 00 00
       0.0 0.0 0.0 0.0
000120 00 00 00 00 00 00 00 00 00 00 00 00 00 00 00 00
       0.0 0.0 0.0 0.0
000130 00 00 00 00 00 00 00 00 00 00 00 00 00 00 00 00
       0.0 0.0 0.0 0.0
000140 00 00 00 00 00 00 00 00 00 00 00 00 00 00 00 00
       0.0 0.0 0.0 0.0
000150 00 00 00 00 00 00 00 00 00 00 00 00 00 00 00 00
       0.0 0.0 0.0 0.0
000160 00 00 00 00 00 00 00 00 00 00 00 00 00 00 00 00
       0.0 0.0 0.0 0.0
000170 00 00 00 00 00 00 00 00 00 00 00 00 00 00 00 00
       0.0 0.0 0.0 0.0
000180 00 00 00 00 00 00 00 00 00 00 00 00 00 00 00 00
       0.0 0.0 0.0 0.0

bn1.running_var f4 [100]
000000 00 00 80 3f 00 00 80 3f 00 00 80 3f 00 00 80 3f
       1.0 1.0 1.0 1.0
000010 00 00 80 3f 00 00 80 3f 00 00 80 3f 00 00 80 3f
       1.0 1.0 1.0 1.0
000020 00 00 80 3f 00 00 80 3f 00 00 80 3f 00 00 80 3f
       1.0 1.0 1.0 1.0
000030 00 00 80 3f 00 00 80 3f 00 00 80 3f 00 00 80 3f
       1.0 1.0 1.0 1.0
000040 00 00 80 3f 00 00 80 3f 00 00 80 3f 00 00 80 3f
       1.0 1.0 1.0 1.0
000050 00 00 80 3f 00 00 80 3f 00 00 80 3f 00 00 80 3f
       1.0 1.0 1.0 1.0
000060 00 00 80 3f 00 00 80 3f 00 00 80 3f 00 00 80 3f
       1.0 1.0 1.0 1.0
000070 00 00 80 3f 00 00 80 3f 00 00 80 3f 00 00 80 3f
       1.0 1.0 1.0 1.0
000080 00 00 80 3f 00 00 80 3f 00 00 80 3f 00 00 80 3f
       1.0 1.0 1.0 1.0
000090 00 00 80 3f 00 00 80 3f 00 00 80 3f 00 00 80 3f
       1.0 1.0 1.0 1.0
0000a0 00 00 80 3f 00 00 80 3f 00 00 80 3f 00 00 80 3f
       1.0 1.0 1.0 1.0
0000b0 00 00 80 3f 00 00 80 3f 00 00 80 3f 00 00 80 3f
       1.0 1.0 1.0 1.0
0000c0 00 00 80 3f 00 00 80 3f 00 00 80 3f 00 00 80 3f
       1.0 1.0 1.0 1.0
0000d0 00 00 80 3f 00 00 80 3f 00 00 80 3f 00 00 80 3f
       1.0 1.0 1.0 1.0
0000e0 00 00 80 3f 00 00 80 3f 00 00 80 3f 00 00 80 3f
       1.0 1.0 1.0 1.0
0000f0 00 00 80 3f 00 00 80 3f 00 00 80 3f 00 00 80 3f
       1.0 1.0 1.0 1.0
000100 00 00 80 3f 00 00 80 3f 00 00 80 3f 00 00 80 3f
       1.0 1.0 1.0 1.0
000110 00 00 80 3f 00 00 80 3f 00 00 80 3f 00 00 80 3f
       1.0 1.0 1.0 1.0
000120 00 00 80 3f 00 00 80 3f 00 00 80 3f 00 00 80 3f
       1.0 1.0 1.0 1.0
000130 00 00 80 3f 00 00 80 3f 00 00 80 3f 00 00 80 3f
       1.0 1.0 1.0 1.0
000140 00 00 80 3f 00 00 80 3f 00 00 80 3f 00 00 80 3f
       1.0 1.0 1.0 1.0
000150 00 00 80 3f 00 00 80 3f 00 00 80 3f 00 00 80 3f
       1.0 1.0 1.0 1.0
000160 00 00 80 3f 00 00 80 3f 00 00 80 3f 00 00 80 3f
       1.0 1.0 1.0 1.0
000170 00 00 80 3f 00 00 80 3f 00 00 80 3f 00 00 80 3f
       1.0 1.0 1.0 1.0
000180 00 00 80 3f 00 00 80 3f 00 00 80 3f 00 00 80 3f
       1.0 1.0 1.0 1.0
