model/nn-reg-7.model (torch_old, 103889 bytes, 9 tensors)

fc1.weight f4 [100, 200]
0	0x3d054119	0.032532785
1	0xbd3581a5	-0.04431309
2	0xbaf4c5d8	-0.0018674685
3	0x3d54d14d	0.051957417
4	0xbd9f0bac	-0.07765898
5	0x3d060746	0.03272178
6	0xbbd1a5aa	-0.0063979225
7	0x3da6ab10	0.08138096
8	0x3c6718da	0.014105046
9	0x3cee2155	0.029068628
10	0xbc33d132	-0.010975169
11	0xbbb1e2b3	-0.005428636
12	0x3da4bbca	0.080436304
13	0xbd9fbd54	-0.07799783
14	0xbcbde083	-0.023178345
15	0xbd87c053	-0.0662848
16	0x3d1a7817	0.037712183
17	0xbbd339bc	-0.0064460915
18	0x3daa35db	0.08311053
19	0x3d024565	0.03180446
20	0xbd867168	-0.06564599
21	0xbd457a23	-0.04821218
22	0xbcf9927d	-0.030465359
23	0x3b9d7f49	0.0048064333
24	0xbd750777	-0.059821572
25	0xbc21fc31	-0.009886787
26	0x3d3a6ffb	0.04551695
27	0x3d88b38a	0.06674869
28	0xbd80f1b9	-0.06296105
29	0xbc9f5690	-0.019450456
30	0x3c99a6e1	0.018756332
31	0x3d4a2045	0.04934718
32	0x3d86d6d5	0.06583945
33	0xbd87c912	-0.06630148
34	0xbdb8ac6b	-0.09017261
35	0xbca05727	-0.019572807
36	0x3d91ac4c	0.07112941
37	0x3badc826	0.0053034006
38	0x3d91c920	0.0711844
39	0xbb3a08fa	-0.0028386698
40	0x3e0e6d32	0.13908842
41	0xbced8438	-0.02899371
42	0x3d31c1d9	0.04339776
43	0xbc188ca9	-0.00931088
44	0xbcc03793	-0.023464
45	0x3c823af7	0.015897257
46	0xbd441198	-0.04786834
47	0x3d33709c	0.043808565
48	0xbde9e1fb	-0.114200555
49	0xbd0f06a1	-0.03491843
50	0xbe067a5f	-0.13132618
51	0xbb573cfd	-0.0032842748
52	0x3d26beff	0.04070949
53	0xbce02902	-0.027363304
54	0x3d87e0b6	0.06634657
55	0x3d1d5b92	0.038417406
56	0xba736934	-0.0009285391
57	0xbd2ac423	-0.041690957
58	0xbc3834de	-0.011243073
59	0x3d405f56	0.04696592
60	0xbe0fe634	-0.1405266
61	0xbda4b500	-0.080423355
62	0x3d2bc357	0.041934337
63	0x3d8b085d	0.067887045
64	0xbd6e1ba7	-0.05813184
65	0xbbf81bb0	-0.00757166
66	0x3d69cbe0	0.057079196
67	0x3c259ad1	0.010107712
68	0xbd7f4685	-0.062323112
69	0xbd8385ef	-0.0642203
70	0x3d18fc54	0.037350014
71	0xbc9d1116	-0.019173186
72	0x3dbbdb94	0.091727406
73	0xbde9f095	-0.114228405
74	0x3d3750e6	0.044754885
75	0x3c06be1e	0.008224038
76	0x3cf4a2c1	0.029862763
77	0x3d2a6a3e	0.041605227
78	0xbd6316f9	-0.05544183
79	0x3dcbaf06	0.099454924
80	0xbda68bd1	-0.081321366
81	0xbd8d35f6	-0.06895058
82	0xbd0fce0f	-0.035108622
83	0xbccf2132	-0.025284383
84	0x3cf12240	0.029435277
85	0xbd288c2d	-0.041149307
86	0xbd91de7e	-0.07122515
87	0x3d628ddd	0.055311073
88	0xbc155494	-0.009114403
89	0x3d2e1099	0.042496298
90	0x3c276a86	0.010218268
91	0xbdef3147	-0.11679321
92	0x3cb621e3	0.022232955
93	0x3b8f7631	0.004378103
94	0xbd36f759	-0.044669483
95	0x3c7feb72	0.015620099
96	0xbc3ab1d8	-0.01139494
97	0x3c2c68d5	0.010523041
98	0xbd6c561a	-0.0576993
99	0xbbeb0a73	-0.0071728765
100	0x3d8c867f	0.068615906
101	0xbb6f1cd6	-0.0036485693
102	0x3ce0a6c6	0.027423274
103	0x3c89d898	0.016826913
104	0xbd8539cc	-0.065051645
105	0xbd167230	-0.03672999
106	0x3da07cd2	0.078363076
107	0xba8fdee6	-0.0010976463
108	0x3d3c5c37	0.04598638
109	0x3d436c16	0.0477105
110	0x3d9b4ce5	0.07583026
111	0x3d47e9cf	0.04880696
112	0x3daefb41	0.08544017
113	0xbdcf4d2c	-0.10122141
114	0xbc5cd0d0	-0.013477519
115	0x3d85d3db	0.06534549
116	0x3cacb64a	0.021083016
117	0x3ba0fe8d	0.0049131573
118	0xbd599fbb	-0.053130846
119	0xbd9ce226	-0.07660322
120	0xbcfed53c	-0.031107537
121	0xbcd1c163	-0.02560491
122	0x3d59ed80	0.053205013
123	0xbe013883	-0.12619214
124	0x3d6be334	0.057589725
125	0xbce6a76c	-0.028156005
126	0xbdbf86eb	-0.093519054
127	0xbc2bbf19	-0.010482573
128	0x3c6a11db	0.014286484
129	0x3db78e79	0.089627214
130	0xbd120eda	-0.035658695
131	0x3d8708da	0.06593485
132	0x3d154a82	0.03644801
133	0x3d4691dc	0.048478946
134	0x3d26e5cd	0.0407465
135	0x3e027692	0.12740543
136	0x3d885133	0.066561125
137	0x3d103326	0.03520503
138	0x3c3999a9	0.011328139
139	0x3ce28d3c	0.027655236
140	0x3d0f21fe	0.034944527
141	0xbd4be892	-0.049782343
142	0xbcfab300	-0.030602932
143	0x3d2b4cb8	0.04182121
144	0x3c7f9110	0.01559855
145	0xbd8b4110	-0.06799519
146	0x3d65c197	0.056092825
147	0x3cf0ba8c	0.029385827
148	0x3da5a351	0.08087791
149	0x3d5b331f	0.05351555
150	0xbc2625d0	-0.010140851
151	0x3d64389a	0.055718042
152	0xbb7cb932	-0.0038562533
153	0xba6591b4	-0.0008757368
154	0xbe2dc3b4	-0.16969186
155	0xbd5438b5	-0.051811893
156	0xbd0a3ba4	-0.033748284
157	0xbdfd732c	-0.12375483
158	0x3d1b7ddb	0.037961822
159	0xbc9676cb	-0.018367192
160	0xbdf98e21	-0.12185312
161	0x3a925993	0.0011165611
162	0x3dcd72b3	0.10031643
163	0x3ce67e33	0.028136348
164	0xbd0b77bb	-0.03404973
165	0xbc812421	-0.015764298
166	0x3b499ba2	0.003076293
167	0xbdb46387	-0.08808046
168	0xbd6e9384	-0.05824615
169	0xbd1bcc0f	-0.038036402
170	0x3d0c9c37	0.034328666
171	0x3dc1ad18	0.09456843
172	0x3ad28a8f	0.0016063022
173	0x3db83db5	0.08996145
174	0x3daf51ba	0.0856051
175	0x3d59b3bd	0.053149927
176	0x3d820dec	0.06350312
177	0x3cfbc6b6	0.030734401
178	0xbc88fda1	-0.016722502
179	0x3d9d2fb7	0.076751165
180	0xbcc02278	-0.023453936
181	0x3bffe174	0.0078088585
182	0xbd02f21d	-0.03196918
183	0xbd153d8e	-0.036435656
184	0x3ceaca49	0.02866091
185	0x3dbcb236	0.092136785
186	0x3b66b327	0.0035201998
187	0xbdec0ae7	-0.11525517
188	0x3d01c6d5	0.03168376
189	0xbcfe64d7	-0.031053944
190	0x3cfed824	0.031108923
191	0xbd1cd5b0	-0.038289726
192	0xbdb8f929	-0.090318985
193	0xbd0f1b60	-0.034938216
194	0x3d6ac026	0.057312153
195	0xbd8b6f91	-0.06808389
196	0x3d9a72c9	0.07541425
197	0x3d3dfefe	0.046385758
198	0x3d95c602	0.073131576
199	0xbd725044	-0.05915858
200	0xbcec360f	-0.02883437
201	0xbd360fb2	-0.044448562
202	0x3d3f5d05	0.04671957
203	0x3c8c70b8	0.017143592
204	0x3cdfccce	0.027319338
205	0x3d9c1379	0.076209016
206	0x3c6191c6	0.013767665
207	0x3c528c20	0.012850791
208	0x3ceaf437	0.028680904
209	0x3db4907e	0.08816622
210	0x3d17830b	0.036990207
211	0x3c6406b0	0.01391761
212	0xbd8e64bd	-0.06952808
213	0xbc92053a	-0.017824758
214	0x3d86694b	0.06563052
215	0x3d91a6e9	0.07111914
216	0x3d9ac311	0.07556737
217	0xbd49aab2	-0.049235053
218	0xbcefe2ff	-0.029283045
219	0x3d99b4a0	0.075051546
220	0xbdaf9843	-0.085739635
221	0x3d6d5312	0.05794055
222	0xbd8fb095	-0.07016102
223	0xbd668a83	-0.05628444
224	0x3ccd7f2a	0.02508505
225	0xbdc255eb	-0.09489044
226	0xbcf14eb1	-0.029456468
227	0x3da003b5	0.07813207
228	0x3c9d7164	0.019219108
229	0x3d57c04c	0.052673623
230	0xbd0b8789	-0.034064803
231	0xbd9e23a9	-0.077216454
232	0x3cf41fcc	0.029800318
233	0x3c9406ee	0.01806971
234	0x3cc71d19	0.024305867
235	0x3ca61347	0.020272864
236	0xbd11452e	-0.035466366
237	0x3d4ae937	0.049538817
238	0x3d4bd81e	0.049766652
239	0xbda24f4c	-0.07925281
240	0xbd4cbd5a	-0.049985267
241	0xbc46c886	-0.012132769
242	0xbc6e0538	-0.014527611
243	0xbcae4896	-0.021274846
244	0xbd1ec442	-0.038761385
245	0xbc61c68e	-0.013780249
246	0xbdab70ca	-0.08371122
247	0xbc8defc2	-0.01732624
248	0xbdb32dc3	-0.08748963
249	0x3db30aba	0.0874228
250	0x3dd7dab8	0.10539764
251	0x3d7e8c87	0.062145736
252	0x3d7afe42	0.061277635
253	0x3d073fbc	0.033019766
254	0xba2ca010	-0.00065851305
255	0xbe25e581	-0.1620083

fc1.bias f4 [100]
0	0x3e209f88	0.15685856
1	0x3d117b47	0.035517957
2	0x3cf969f3	0.030446028
3	0xbd69ce68	-0.05708161
4	0xbdd7832d	-0.10523067
5	0x3d7c3aa2	0.061579354
6	0x3dcb77ff	0.09934997
7	0xbc98dbfc	-0.018659584
8	0x3c01379b	0.0078867925
9	0xbd2a1e4c	-0.0415328
10	0xbd83ee88	-0.064419806
11	0x3dca6e56	0.09884326
12	0xbd57f1c8	-0.052720815
13	0x3c07ff56	0.008300623
14	0x3bc82206	0.0061075715
15	0x3cc0ce2b	0.023535809
16	0x3c928709	0.017886655
17	0x3b97c9e5	0.004632222
18	0x3d6f0f53	0.058364224
19	0xbd66550e	-0.05623346
20	0x3b9a6bf6	0.004712577
21	0x3d8e8b3b	0.0696015
22	0x3d598cae	0.05311268
23	0xbb6fb1e0	-0.0036574528
24	0xbd880a56	-0.066425964
25	0x3d2aae3d	0.041670073
26	0x3d7f2117	0.062287416
27	0xb8b30b22	-8.537459e-05
28	0xba997032	-0.001170641
29	0x3cc44c49	0.023962157
30	0x3d99bdd3	0.07506909
31	0xbd8cae70	-0.06869209
32	0x3ca483eb	0.020082435
33	0x3d0b4fa1	0.034011487
34	0x3ca98ced	0.020697081
35	0xbddeb90d	-0.108751394
36	0xbd750ada	-0.059824802
37	0xbd3d3d06	-0.046200775
38	0xbd2cd28f	-0.04219299
39	0xbc001590	-0.007817641
40	0x3e07415c	0.13208526
41	0x3da5bd56	0.080927536
42	0x3db7b3b4	0.089698225
43	0x3d365eef	0.04452413
44	0x3bc1eb15	0.0059179165
45	0xbd51f5ef	-0.05125993
46	0x3d5977e7	0.053092863
47	0xbd411e68	-0.04714814
48	0x3d2aa0c3	0.04165722
49	0xbd8173cc	-0.063209146
50	0xbd0b0ec9	-0.033949647
51	0x3dc2020d	0.094730474
52	0x3d68ea36	0.056863986
53	0xbd2bfe08	-0.04199031
54	0xbd5dea8c	-0.05417876
55	0xbc8d9012	-0.017280612
56	0xbc3cf9c7	-0.011534161
57	0x3c8eeec5	0.017447839
58	0x3da24125	0.079225816
59	0xbc7448f6	-0.014909973
60	0xbc889429	-0.01667221
61	0x3dc40f27	0.095732026
62	0x3d3cc44a	0.046085633
63	0x3d80d01d	0.062896945
64	0xbe157766	-0.14596328
65	0x3dada1d6	0.084781334
66	0x3dd5a49d	0.10431788
67	0x3dff99cb	0.124805056
68	0x3dc4c227	0.09607344
69	0xbc90f5b3	-0.017695284
70	0xbcc0862d	-0.02350148
71	0xbe11a5bf	-0.14223383
72	0xbca76856	-0.020435493
73	0x3d2cb229	0.042162094
74	0x3d246a37	0.040140357
75	0xbccae7e9	-0.024768787
76	0x3b26e349	0.0025465062
77	0x3e11dbd9	0.14244021
78	0xbc509e9c	-0.012733128
79	0x3d7c232a	0.061556973
80	0x3e04d62d	0.12972327
81	0x3e0cfddd	0.13768716
82	0xbd299a4d	-0.04140692
83	0xbc890dc5	-0.016730199
84	0x3dfd2aeb	0.123617016
85	0xbd03fb47	-0.03222206
86	0xbe2c6f67	-0.16839372
87	0xbc2d94b9	-0.01059454
88	0xbd3e449a	-0.046452142
89	0xbc8e56cb	-0.01737537
90	0x3c378b2d	0.011202616
91	0xbb8afd30	-0.004241608
92	0x3d3a46b5	0.045477588
93	0xbb9b667d	-0.004742442
94	0xbcc17cec	-0.023619138
95	0xbd9a1f87	-0.075255446
96	0x3e0401ad	0.12891264
97	0x3da290f9	0.079378076
98	0x3d13d274	0.036089376
99	0x3d0895a7	0.033345845

fc2.weight f4 [50, 100]
0	0x3e664c74	0.22490102
1	0xbda3e183	-0.08001997
2	0x3d8e226a	0.06940158
3	0xbd6d994a	-0.058007516
4	0x3d67b07f	0.056564804
5	0x3d5f6892	0.054543085
6	0x3c69c9a0	0.014269263
7	0xbd919480	-0.07108402
8	0xbd26a8b0	-0.040688217
9	0xbda14b38	-0.07875675
10	0x3d81a689	0.06330592
11	0xbdc91497	-0.0981838
12	0xbe119bdf	-0.14219616
13	0x3af432c0	0.0018630847
14	0x3c90bd57	0.01766841
15	0xbbb3a4b0	-0.0054822788
16	0xbde472f9	-0.11154742
17	0x3d758526	0.059941433
18	0x3c2e91bb	0.010654862
19	0xbd9dbb25	-0.077017106
20	0xbda9d892	-0.08293261
21	0x3ddf99f1	0.10918034
22	0x3c06dabe	0.008230863
23	0xbdb46113	-0.08807578
24	0xbd7652eb	-0.06013767
25	0xbddbc64c	-0.107311815
26	0xbc979d48	-0.018507615
27	0x3d02ed74	0.031964734
28	0x3d9882ab	0.07446798
29	0xbe410c60	-0.18852377
30	0x3cf1d4ae	0.029520359
31	0xbc160058	-0.009155355
32	0x3d33ce09	0.043897662
33	0x3d122594	0.03568037
34	0xbdb0d570	-0.0863446
35	0xbd6e54e7	-0.058186438
36	0xbd362b2c	-0.044474766
37	0xbd4c23d7	-0.049838867
38	0x3d961007	0.07327276
39	0xbd379483	-0.044819366
40	0x3d9eb165	0.07748679
41	0x3d7ae240	0.061250925
42	0x3d190497	0.037357893
43	0x3cb6c9d4	0.022313036
44	0x3cfbac4d	0.030721808
45	0x3dcf4f06	0.101224944
46	0x3e2ee776	0.17080483
47	0xbda72791	-0.081618436
48	0xbd758226	-0.059938572
49	0xbcbfa84c	-0.02339568
50	0xbd26e059	-0.0407413
51	0x3cc4c7e4	0.024021097
52	0x3c7eae45	0.015544479
53	0xbdbd1c0b	-0.092338644
54	0xbe5a8ef7	-0.213436
55	0x3d4974a2	0.049183495
56	0x3d48a3b6	0.048984252
57	0xbe0a87b5	-0.1352833
58	0x3d0abc10	0.033870757
59	0xbe2bb476	-0.16768059
60	0xbd48f73e	-0.049063914
61	0x3d14f73e	0.0363686
62	0x3d97f648	0.07420021
63	0x3c6282b8	0.013825111
64	0x3d8fadc5	0.07015566
65	0x3cb3a770	0.021930426
66	0xbde69a20	-0.11259866
67	0xbd7a7163	-0.06114329
68	0x3d923229	0.071384735
69	0xbdb3960d	-0.08768854
70	0x3d027b0d	0.03185563
71	0x3d47f2ed	0.048815656
72	0x3dcbf935	0.09959642
73	0x3cd6b58e	0.026209619
74	0xbbbf14ee	-0.0058313524
75	0xbc1dc8fc	-0.009630438
76	0x3da87d36	0.08227007
77	0x3e23fc69	0.16014256
78	0x3d6a4312	0.05719287
79	0x3d48c207	0.049013164
80	0xbce10c17	-0.027471585
81	0xbd22feb6	-0.039793693
82	0xbcaa0e26	-0.0207587
83	0x3988853e	0.00026039215
84	0xbe08bf72	-0.1335428
85	0x3d06c88e	0.032906108
86	0xbd88f40d	-0.06687174
87	0xbddc8af1	-0.107686885
88	0x3db7720b	0.08957299
89	0x3c6c73fa	0.014431948
90	0xbdad0d1d	-0.08449767
91	0x3d8e0969	0.069353886
92	0xbc5923ba	-0.013253147
93	0xbd84b244	-0.06479314
94	0xbd48a5aa	-0.048986115
95	0x3d3020d2	0.04300005
96	0x3cdef7f8	0.02721785
97	0x3e05acb7	0.13054167
98	0xbd33c600	-0.04389
99	0xbb38f6e2	-0.0028223325
100	0xbdaa9e76	-0.08331005
101	0xbd6889dc	-0.056772098
102	0x3d53c2a1	0.051699284
103	0xbbe7dd00	-0.007075906
104	0xbd9a4388	-0.07532412
105	0x3c922680	0.017840624
106	0x3cb7ecff	0.022451876
107	0x3c0a1128	0.008426942
108	0x3d8cf451	0.06882537
109	0x3dc8f791	0.098128445
110	0xbcdd10ec	-0.026985608
111	0x3cf45057	0.029823465
112	0xbceaa27e	-0.028641935
113	0x3db4945f	0.08817362
114	0x3b38c4ae	0.0028193402
115	0x3da77677	0.08176892
116	0xbc95009d	-0.018188769
117	0xbb2d6b00	-0.0026461482
118	0x3c9afad6	0.018918436
119	0xbd8dfb45	-0.069326915
120	0xbd9a0c83	-0.07521918
121	0x3d9e02a5	0.07715348
122	0xbd919ab5	-0.07109586
123	0xbdbad375	-0.091223635
124	0xbdb6a471	-0.089180835
125	0x3c7a5c27	0.01528076
126	0x3d2701e7	0.0407733
127	0x3cf0ec96	0.029409688
128	0xbd3bc57b	-0.04584263
129	0x3cd7fcc9	0.026365655
130	0x3d094274	0.03351064
131	0xbdab13da	-0.08353396
132	0xbe1b8389	-0.15186895
133	0x3dbf608e	0.09344588
134	0xbd95c12b	-0.073122345
135	0xbdbe6184	-0.092959434
136	0xbd99bf3c	-0.07507178
137	0x3caaeddf	0.020865379
138	0x3d156c72	0.036480375
139	0x3d9f9817	0.07792681
140	0xbc71f0c1	-0.014766873
141	0xbd70fce1	-0.058834914
142	0x3cf4c592	0.029879365
143	0x3db3ad2d	0.08773265
144	0xbdde09d5	-0.10841719
145	0xbd8145ce	-0.06312142
146	0x3e099ee5	0.1343952
147	0xbd1f1c4d	-0.03884535
148	0x3d22c65b	0.039739948
149	0xbd1c2777	-0.038123574
150	0xbcf4ee1a	-0.029898692
151	0x3b8d23a3	0.0043072267
152	0xbdaad8ab	-0.083421074
153	0x3b0883c0	0.0020830482
154	0xbe4300a8	-0.19043219
155	0x3d2cc96a	0.04218427
156	0xbd0e0b9c	-0.03467904
157	0xbdfaf3b6	-0.122535154
158	0xbd41e097	-0.047333326
159	0x3e040579	0.12892713
160	0xbce2c18d	-0.027680183
161	0x3c08f56e	0.008359296
162	0xbd9434b0	-0.07236612
163	0xbdab00df	-0.083497755
164	0x3cffdca2	0.031233136
165	0xbd4da96d	-0.050210405
166	0xbd947fbd	-0.07250927
167	0x3be52720	0.0069931895
168	0xbd884302	-0.06653406
169	0xbd27c010	-0.04095465
170	0xbcd88065	-0.02642841
171	0x3d578aa6	0.05262246
172	0x3da565cd	0.080760576
173	0x3da0b3bf	0.07846784
174	0xbd7eeed2	-0.062239476
175	0x3d088c01	0.033336643
176	0xbd9ceb2b	-0.07662042
177	0x3d83d0da	0.0643632
178	0xbd96a143	-0.07354977
179	0xbd16e6a2	-0.036841042
180	0xbc39b810	-0.011335388
181	0x3d788077	0.06066939
182	0x3d3e8d14	0.04652126
183	0xbd1f637f	-0.038913246
184	0x3d42b2cc	0.047533795
185	0xbcffb140	-0.03121245
186	0xbc330ea9	-0.010928788
187	0xbbf82d55	-0.0075737634
188	0xbbbd8ba0	-0.005784467
189	0x3c3ca544	0.011514012
190	0x3d8142ec	0.063115925
191	0xbd8e3a4e	-0.069447145
192	0x3d0aef16	0.033919416
193	0xbdcbefcc	-0.09957847
194	0xbd635e67	-0.05550995
195	0xbdb1472f	-0.08656155
196	0xbd24d041	-0.04023767
197	0x3e042bd8	0.1290735
198	0x3d992aaa	0.07478841
199	0xbdd40b01	-0.10353661
200	0x3d9e9f8c	0.07745275
201	0xbc3b27e1	-0.011423082
202	0x3c939b71	0.018018456
203	0xbdb96183	-0.09051802
204	0xbbc91d49	-0.0061375243
205	0x3dabd7a5	0.0839074
206	0x3e8b93e4	0.2726127
207	0x3da0b389	0.078467436
208	0x3d055426	0.032550953
209	0xbd0f96cc	-0.03505592
210	0xbd9ec86e	-0.07753073
211	0x3d81f190	0.063449025
212	0x3dc799be	0.09746121
213	0xbd88d23f	-0.06680726
214	0xbc05a398	-0.00815668
215	0x3d420346	0.047366403
216	0xbdb63da8	-0.08898479
217	0xbdb14425	-0.08655576
218	0x3c814ac6	0.015782725
219	0x3dc300f1	0.09521664
220	0x3c605d8a	0.013694176
221	0x3cd169fa	0.025563229
222	0x3d6a44a6	0.057194375
223	0xbd76a583	-0.060216438
224	0x3d6e391c	0.058159932
225	0x3ce724cf	0.028215794
226	0xbdb89fa9	-0.09014828
227	0xbc58f998	-0.013243102
228	0xbdfaedc8	-0.122523844
229	0x3ccacc24	0.024755545
230	0xbc9aeec0	-0.018912673
231	0x3dbfafb7	0.09359687
232	0x3da69b91	0.08135141
233	0xbd46f093	-0.048569273
234	0x3d8d8a4f	0.06911146
235	0x3d20164e	0.03908377
236	0x3e4443e4	0.19166523
237	0x3c65ff50	0.014037922
238	0xbbcd4a80	-0.0062649846
239	0xbdd6c635	-0.10487024
240	0xbb07568d	-0.0020650954
241	0x3dac57b5	0.08415166
242	0x3bef5d9d	0.0073048607
243	0x3e887fb2	0.26659924
244	0x3cd028db	0.025410106
245	0xbcadd482	-0.021219496
246	0xbd7ec8d1	-0.062203232
247	0x3be18fce	0.006883598
248	0x3ccc9bf0	0.0249767
249	0xbaade140	-0.0013265982
250	0xbc8a8a87	-0.016911758
251	0xbd35671d	-0.04428779
252	0x3dc40fa1	0.095732935
253	0xbc8cc7f4	-0.017185189
254	0x3cd570b0	0.02605471
255	0x3d037126	0.03209033

fc2.bias f4 [50]
0	0x3e478a13	0.19486265
1	0x3e3b6ede	0.18304011
2	0xbced4112	-0.028961692
3	0xbcd1b2b1	-0.025597902
4	0x3d6cfcf2	0.057858415
5	0x3e2b665c	0.16738266
6	0x3d24f45b	0.040272098
7	0xbda6c42c	-0.081428856
8	0x3ca35d70	0.019942015
9	0x3e189873	0.14901905
10	0xbdeb68c0	-0.11494589
11	0x3e17b527	0.14815198
12	0x3da83ff3	0.08215322
13	0xbd869130	-0.06570661
14	0xbd4f4deb	-0.050611418
15	0x3d6c1ac7	0.057642724
16	0xbd6d4e40	-0.057935953
17	0x3d436ab4	0.047709182
18	0x3e355420	0.17707872
19	0xbd3cd4f2	-0.046101518
20	0xbd87e6ab	-0.06635793
21	0xbddb9cea	-0.10723288
22	0x3db026b3	0.08601131
23	0x3e30749f	0.17231987
24	0xbd803abb	-0.06261202
25	0xbde61734	-0.112348944
26	0xbcad69be	-0.021168586
27	0x3d126ae5	0.035746474
28	0xbd97d2f5	-0.07413284
29	0xbd83e8a6	-0.064408585
30	0x3e1376d7	0.14400803
31	0xbe134f66	-0.14385757
32	0x3df5412f	0.119753234
33	0xbd14b9c9	-0.03630999
34	0xbd1717ba	-0.03688786
35	0xbe1a043e	-0.15040681
36	0x3dc10065	0.094239034
37	0xbd8cb79d	-0.06870959
38	0x3d5f65dd	0.054540504
39	0x3e009f1a	0.12560692
40	0xbd8e76fb	-0.069562875
41	0xbd1f8a80	-0.038950443
42	0xbe093bb4	-0.13401681
43	0xbd9bc14c	-0.07605228
44	0xbd82a235	-0.06378595
45	0xbe04ca26	-0.12967739
46	0x3dc5f63e	0.096661076
47	0x3e5423c0	0.20716763
48	0x3e329c93	0.17442541
49	0xbd423434	-0.047413066

fc3.weight f4 [1, 50]
0	0x3cecefbf	0.028922914
1	0x3e0373be	0.12837121
2	0xbc89a8f3	-0.016804194
3	0xbddbd420	-0.10733819
4	0x3dae6c4f	0.08516752
5	0x3dd86648	0.105663836
6	0x3cad5b64	0.021161743
7	0xbc08aa2e	-0.008341355
8	0xbc6461fa	-0.013939375
9	0x3daaf71a	0.08347912
10	0x3d5ba451	0.0536235
11	0x3d3cca47	0.046091344
12	0x3dc841de	0.09778188
13	0x39fb4ff4	0.0004793402
14	0x3b416d09	0.0029514453
15	0x3d98ced3	0.074613236
16	0x3cbed08b	0.0232928
17	0xbc45be27	-0.012069262
18	0x3d8f1022	0.06985499
19	0xbd90e62c	-0.07075152
20	0x3d7218e1	0.059105758
21	0xbc37aaa4	-0.0112101175
22	0x3d64c90c	0.055855796
23	0x3c2fccb1	0.010729955
24	0xbd9d5e5f	-0.076840155
25	0xbb8b26c4	-0.0042465646
26	0xbb0b88e1	-0.0021291303
27	0x3cfae17c	0.030625097
28	0xbde44933	-0.11146774
29	0x3ccfc913	0.025364434
30	0x3e39fbd4	0.18162471
31	0xbcf65e7c	-0.03007435
32	0x3c827b6c	0.015927993
33	0xbd42c0d1	-0.047547165
34	0xbd6b9a82	-0.057520397
35	0xbd98bc03	-0.074577354
36	0x3bf4d70d	0.007471925
37	0xbdeaeb1a	-0.11470623
38	0x3cd820ff	0.026382921
39	0x3dc353ed	0.09537492
40	0x3ce9f652	0.028559837
41	0xbc2b8c32	-0.010470437
42	0xbdb51efa	-0.08843799
43	0x3c8b6e5d	0.017020399
44	0x3b0b63a1	0.00212691
45	0xbcd0ffa2	-0.02551252
46	0xbd8b54de	-0.068032965
47	0x3c0a28c8	0.008432575
48	0x3d4ea758	0.05045256
49	0xbcac9a1a	-0.021069575

bn1.weight f4 [100]
0	0x3ef6d308	0.4820788
1	0x3edbe672	0.42949253
2	0x3edfb47a	0.4369238
3	0x3efd7804	0.49505627
4	0x3d1bb710	0.03801638
5	0x3e6e0cdc	0.23247093
6	0x3f031a3c	0.51211905
7	0x3e1b76b0	0.15181994
8	0x3f16c42c	0.58893085
9	0x3f6cb88d	0.924691
10	0x3f43aa15	0.764314
11	0x3f607f2a	0.87694037
12	0x3f0e2178	0.5551982
13	0x3f0aa791	0.54161936
14	0x3e4d106c	0.20025796
15	0x3ee90b08	0.4551623
16	0x3e99c524	0.3003322
17	0x3f64e35d	0.8940943
18	0x3eb1bb7c	0.34713352
19	0x3ed44dc2	0.41465575
20	0x3f5c7cd0	0.8612795
21	0x3cc7e9a0	0.024403393
22	0x3f2968b7	0.6617541
23	0x3f60607e	0.87647235
24	0x3dc7a7d0	0.097488046
25	0x3f2c5af5	0.6732629
26	0x3f260109	0.6484533
27	0x3eeee20c	0.46656835
28	0x3f781ae6	0.96916044
29	0x3f5728c6	0.8404659
30	0x3ec58398	0.3857696
31	0x3ec415e0	0.3829794
32	0x3f0312df	0.5120067
33	0x3e8ab6c2	0.27092558
34	0x3f55bf88	0.8349538
35	0x3f5cd4a7	0.8626198
36	0x3f6e872d	0.9317501
37	0x3e3fe8c8	0.18741143
38	0x3f02c983	0.5108873
39	0x3f4fd05c	0.81177306
40	0x3ed29782	0.41131216
41	0x3e743bd0	0.23850942
42	0x3f0fd3b8	0.5618243
43	0x3d3ff780	0.046866894
44	0x3f74f939	0.95692784
45	0x3e7e77f0	0.2485044
46	0x3f729f15	0.9477399
47	0x3e9f5996	0.31123036
48	0x3f44461b	0.7666947
49	0x3f222162	0.6333219
50	0x3f273ac0	0.6532402
51	0x3f37d4b2	0.7180892
52	0x3e44c004	0.19213873
53	0x3e25480c	0.16140765
54	0x3f1bafc4	0.6081507
55	0x3f7bfa54	0.98428845
56	0x3db940e0	0.09045577
57	0x3f43ace9	0.76435715
58	0x3e9355de	0.2877645
59	0x3f3515a1	0.7073613
60	0x3f422f68	0.75853586
61	0x3f41e7ea	0.757445
62	0x3da16808	0.078811705
63	0x3e4e2a2c	0.20133275
64	0x3d9e6348	0.0773378
65	0x3ecf9e6e	0.4055056
66	0x3ee0caba	0.43904668
67	0x3ee7e1d2	0.45289475
68	0x3f798a4e	0.9747666
69	0x3ef516dc	0.47869003
70	0x3f2ba517	0.6704878
71	0x3db3f7c0	0.08787489
72	0x3f788b2b	0.97087353
73	0x3f366f02	0.71263134
74	0x3f12f48b	0.5740439
75	0x3f48ff1a	0.78514254
76	0x3f5ec455	0.8701833
77	0x3f4faef5	0.8112634
78	0x3e7ac984	0.24490935
79	0x3f384f01	0.7199555
80	0x3e64be84	0.22338301
81	0x3eef11f8	0.46693397
82	0x3f7a22a2	0.97709095
83	0x3f3b33de	0.7312602
84	0x3e778d30	0.24174953
85	0x3d7e72c0	0.062121153
86	0x3f42465a	0.758886
87	0x3f2d2568	0.676352
88	0x3f002f4b	0.50072163
89	0x3ee855c8	0.45377946
90	0x3f001e18	0.5004592
91	0x3f36e282	0.71439373
92	0x3e226df0	0.1586225
93	0x3e81d6f8	0.2535932
94	0x3f7a4fa3	0.97777766
95	0x3f64b3a2	0.893366
96	0x3e7f4f80	0.2493267
97	0x3f1da0e9	0.61573654
98	0x3e467dd0	0.19383931
99	0x3ef50614	0.478562

bn1.bias f4 [100]
0	0x00000000	0.0
1	0x00000000	0.0
2	0x00000000	0.0
3	0x00000000	0.0
4	0x00000000	0.0
5	0x00000000	0.0
6	0x00000000	0.0
7	0x00000000	0.0
8	0x00000000	0.0
9	0x00000000	0.0
10	0x00000000	0.0
11	0x00000000	0.0
12	0x00000000	0.0
13	0x00000000	0.0
14	0x00000000	0.0
15	0x00000000	0.0
16	0x00000000	0.0
17	0x00000000	0.0
18	0x00000000	0.0
19	0x00000000	0.0
20	0x00000000	0.0
21	0x00000000	0.0
22	0x00000000	0.0
23	0x00000000	0.0
24	0x00000000	0.0
25	0x00000000	0.0
26	0x00000000	0.0
27	0x00000000	0.0
28	0x00000000	0.0
29	0x00000000	0.0
30	0x00000000	0.0
31	0x00000000	0.0
32	0x00000000	0.0
33	0x00000000	0.0
34	0x00000000	0.0
35	0x00000000	0.0
36	0x00000000	0.0
37	0x00000000	0.0
38	0x00000000	0.0
39	0x00000000	0.0
40	0x00000000	0.0
41	0x00000000	0.0
42	0x00000000	0.0
43	0x00000000	0.0
44	0x00000000	0.0
45	0x00000000	0.0
46	0x00000000	0.0
47	0x00000000	0.0
48	0x00000000	0.0
49	0x00000000	0.0
50	0x00000000	0.0
51	0x00000000	0.0
52	0x00000000	0.0
53	0x00000000	0.0
54	0x00000000	0.0
55	0x00000000	0.0
56	0x00000000	0.0
57	0x00000000	0.0
58	0x00000000	0.0
59	0x00000000	0.0
60	0x00000000	0.0
61	0x00000000	0.0
62	0x00000000	0.0
63	0x00000000	0.0
64	0x00000000	0.0
65	0x00000000	0.0
66	0x00000000	0.0
67	0x00000000	0.0
68	0x00000000	0.0
69	0x00000000	0.0
70	0x00000000	0.0
71	0x00000000	0.0
72	0x00000000	0.0
73	0x00000000	0.0
74	0x00000000	0.0
75	0x00000000	0.0
76	0x00000000	0.0
77	0x00000000	0.0
78	0x00000000	0.0
79	0x00000000	0.0
80	0x00000000	0.0
81	0x00000000	0.0
82	0x00000000	0.0
83	0x00000000	0.0
84	0x00000000	0.0
85	0x00000000	0.0
86	0x00000000	0.0
87	0x00000000	0.0
88	0x00000000	0.0
89	0x00000000	0.0
90	0x00000000	0.0
91	0x00000000	0.0
92	0x00000000	0.0
93	0x00000000	0.0
94	0x00000000	0.0
95	0x00000000	0.0
96	0x00000000	0.0
97	0x00000000	0.0
98	0x00000000	0.0
99	0x00000000	0.0

bn1.running_mean f4 [100]
0	0x00000000	0.0
1	0x00000000	0.0
2	0x00000000	0.0
3	0x00000000	0.0
4	0x00000000	0.0
5	0x00000000	0.0
6	0x00000000	0.0
7	0x00000000	0.0
8	0x00000000	0.0
9	0x00000000	0.0
10	0x00000000	0.0
11	0x00000000	0.0
12	0x00000000	0.0
13	0x00000000	0.0
14	0x00000000	0.0
15	0x00000000	0.0
16	0x00000000	0.0
17	0x00000000	0.0
18	0x00000000	0.0
19	0x00000000	0.0
20	0x00000000	0.0
21	0x00000000	0.0
22	0x00000000	0.0
23	0x00000000	0.0
24	0x00000000	0.0
25	0x00000000	0.0
26	0x00000000	0.0
27	0x00000000	0.0
28	0x00000000	0.0
29	0x00000000	0.0
30	0x00000000	0.0
31	0x00000000	0.0
32	0x00000000	0.0
33	0x00000000	0.0
34	0x00000000	0.0
35	0x00000000	0.0
36	0x00000000	0.0
37	0x00000000	0.0
38	0x00000000	0.0
39	0x00000000	0.0
40	0x00000000	0.0
41	0x00000000	0.0
42	0x00000000	0.0
43	0x00000000	0.0
44	0x00000000	0.0
45	0x00000000	0.0
46	0x00000000	0.0
47	0x00000000	0.0
48	0x00000000	0.0
49	0x00000000	0.0
50	0x00000000	0.0
51	0x00000000	0.0
52	0x00000000	0.0
53	0x00000000	0.0
54	0x00000000	0.0
55	0x00000000	0.0
56	0x00000000	0.0
57	0x00000000	0.0
58	0x00000000	0.0
59	0x00000000	0.0
60	0x00000000	0.0
61	0x00000000	0.0
62	0x00000000	0.0
63	0x00000000	0.0
64	0x00000000	0.0
65	0x00000000	0.0
66	0x00000000	0.0
67	0x00000000	0.0
68	0x00000000	0.0
69	0x00000000	0.0
70	0x00000000	0.0
71	0x00000000	0.0
72	0x00000000	0.0
73	0x00000000	0.0
74	0x00000000	0.0
75	0x00000000	0.0
76	0x00000000	0.0
77	0x00000000	0.0
78	0x00000000	0.0
79	0x00000000	0.0
80	0x00000000	0.0
81	0x00000000	0.0
82	0x00000000	0.0
83	0x00000000	0.0
84	0x00000000	0.0
85	0x00000000	0.0
86	0x00000000	0.0
87	0x00000000	0.0
88	0x00000000	0.0
89	0x00000000	0.0
90	0x00000000	0.0
91	0x00000000	0.0
92	0x00000000	0.0
93	0x00000000	0.0
94	0x00000000	0.0
95	0x00000000	0.0
96	0x00000000	0.0
97	0x00000000	0.0
98	0x00000000	0.0
99	0x00000000	0.0

bn1.running_var f4 [100]
0	0x3f800000	1.0
1	0x3f800000	1.0
2	0x3f800000	1.0
3	0x3f800000	1.0
4	0x3f800000	1.0
5	0x3f800000	1.0
6	0x3f800000	1.0
7	0x3f800000	1.0
8	0x3f800000	1.0
9	0x3f800000	1.0
10	0x3f800000	1.0
11	0x3f800000	1.0
12	0x3f800000	1.0
13	0x3f800000	1.0
14	0x3f800000	1.0
15	0x3f800000	1.0
16	0x3f800000	1.0
17	0x3f800000	1.0
18	0x3f800000	1.0
19	0x3f800000	1.0
20	0x3f800000	1.0
21	0x3f800000	1.0
22	0x3f800000	1.0
23	0x3f800000	1.0
24	0x3f800000	1.0
25	0x3f800000	1.0
26	0x3f800000	1.0
27	0x3f800000	1.0
28	0x3f800000	1.0
29	0x3f800000	1.0
30	0x3f800000	1.0
31	0x3f800000	1.0
32	0x3f800000	1.0
33	0x3f800000	1.0
34	0x3f800000	1.0
35	0x3f800000	1.0
36	0x3f800000	1.0
37	0x3f800000	1.0
38	0x3f800000	1.0
39	0x3f800000	1.0
40	0x3f800000	1.0
41	0x3f800000	1.0
42	0x3f800000	1.0
43	0x3f800000	1.0
44	0x3f800000	1.0
45	0x3f800000	1.0
46	0x3f800000	1.0
47	0x3f800000	1.0
48	0x3f800000	1.0
49	0x3f800000	1.0
50	0x3f800000	1.0
51	0x3f800000	1.0
52	0x3f800000	1.0
53	0x3f800000	1.0
54	0x3f800000	1.0
55	0x3f800000	1.0
56	0x3f800000	1.0
57	0x3f800000	1.0
58	0x3f800000	1.0
59	0x3f800000	1.0
60	0x3f800000	1.0
61	0x3f800000	1.0
62	0x3f800000	1.0
63	0x3f800000	1.0
64	0x3f800000	1.0
65	0x3f800000	1.0
66	0x3f800000	1.0
67	0x3f800000	1.0
68	0x3f800000	1.0
69	0x3f800000	1.0
70	0x3f800000	1.0
71	0x3f800000	1.0
72	0x3f800000	1.0
73	0x3f800000	1.0
74	0x3f800000	1.0
75	0x3f800000	1.0
76	0x3f800000	1.0
77	0x3f800000	1.0
78	0x3f800000	1.0
79	0x3f800000	1.0
80	0x3f800000	1.0
81	0x3f800000	1.0
82	0x3f800000	1.0
83	0x3f800000	1.0
84	0x3f800000	1.0
85	0x3f800000	1.0
86	0x3f800000	1.0
87	0x3f800000	1.0
88	0x3f800000	1.0
89	0x3f800000	1.0
90	0x3f800000	1.0
91	0x3f800000	1.0
92	0x3f800000	1.0
93	0x3f800000	1.0
94	0x3f800000	1.0
95	0x3f800000	1.0
96	0x3f800000	1.0
97	0x3f800000	1.0
98	0x3f800000	1.0
99	0x3f800000	1.0
